dqn1_q_network.pth (torch, 72847 bytes, 6 tensors)

weight f4 [128, 4]
000000 e9 37 c2 be 09 d3 c6 bd 17 5d 3d bf 36 99 c5 be
       -0.3793328 -0.097082205 -0.7397017 -0.38593453
000010 3f b1 ce be bf ee 5c 3e ae 97 e4 3e 73 a5 16 3e
       -0.40369603 0.2157545 0.44646972 0.14711551
000020 a7 ff 71 3e f8 6d 93 3d fe 98 8a 3f 98 12 b7 3e
       0.2363268 0.07198709 1.082794 0.35756373
000030 8d de 2c bd ab e0 e6 be 69 3f 0e bf 55 19 f2 bd
       -0.04220443 -0.45093283 -0.55565506 -0.11821238
000040 68 8a 9e 3c 32 4c dc be 84 97 b9 be 5d af 85 be
       0.019353107 -0.43026882 -0.3624841 -0.26110354
000050 91 1e 81 be 8e ef 1e bf 77 ce 89 bc dc ea 6c bc
       -0.25218633 -0.6208428 -0.016822083 -0.014460292
000060 c8 52 d9 bd 7b 11 a4 be 3b dc d1 bd 69 4c e6 be
       -0.106114924 -0.32044587 -0.10247084 -0.4498017
000070 44 9a c5 be 9a 93 7a bd a5 e0 54 bf 6f ce 45 be
       -0.38594258 -0.06117592 -0.8315528 -0.1931703
000080 8a ed ac be 85 d7 e6 3d 77 5e 45 bf 0a ee 82 be
       -0.33774978 0.11271576 -0.77097267 -0.25572234
000090 d7 e4 91 3e ac 80 30 be 1b cd 31 bf 05 e9 0f bf
       0.28494903 -0.17236584 -0.6945359 -0.56214935
0000a0 59 1b eb 3e 12 c3 56 be f4 a1 3b be cd 1a dd 3e
       0.45919302 -0.20972851 -0.18323499 0.4318451
0000b0 5d 1f 9f be 96 59 2b be 58 e1 57 be 7b 53 79 be
       -0.31078616 -0.16733393 -0.21082056 -0.24348252
0000c0 78 d9 66 be b6 c2 b6 bd b9 a2 31 3f 43 53 fd be
       -0.22543895 -0.08923857 0.6938892 -0.49477586
0000d0 3c 5d 81 be ee 29 0e 3f 7e 79 b6 be 30 88 27 bd
       -0.25266445 0.5553273 -0.35639566 -0.040901363
0000e0 68 66 22 be dd f9 b1 3e 6d cc 8c 3d 7c 38 ea be
       -0.15859377 0.34760943 0.068749286 -0.4574622
0000f0 56 20 e5 be 46 7e 23 be e8 8d b7 be c7 9d 9e bd
       -0.44751233 -0.15966138 -0.35850453 -0.077449374
000100 5e 58 94 be ea 1a f6 be 35 cc 19 3d 1b 6a 9f be
       -0.2897367 -0.4806741 0.037548263 -0.3113564
000110 83 76 90 3e e2 0a 68 be 65 52 61 3f 85 1d b1 3d
       0.28215417 -0.22660401 0.8801635 0.086482085
000120 2a c9 97 bc 9e 74 d2 be cd 82 a4 3e 72 b4 83 be
       -0.01852854 -0.41104597 0.32131043 -0.25723606
000130 02 6f 04 3e d8 14 3c be 67 26 b5 be 66 1b f6 bd
       0.12932971 -0.18367326 -0.3538086 -0.120169446
000140 c1 ac 3f 3e 5e d1 38 bd eb f2 0a bf 0a 5b bd be
       0.18718244 -0.045121543 -0.54276913 -0.3698352
000150 f3 38 39 be a6 81 ca 3e 76 09 b1 3e a8 f3 b1 3d
       -0.1808813 0.3955204 0.3457753 0.08689052
000160 3a b4 90 3e 2d 34 cc 3c b4 0c 39 3e 4d dd 46 3d
       0.28262502 0.024927223 0.18071252 0.048550893
000170 0d 47 33 3e 91 85 3b be a5 d9 47 3f e6 fc d8 3e
       0.17507572 -0.1831267 0.78066474 0.42380446
000180 df 15 29 be c7 a3 a0 3a 32 9f 25 bf 63 36 d7 be
       -0.1651225 0.0012255841 -0.6469604 -0.4203368
000190 b3 fb d2 be cb 5c 19 3f 43 d8 4e 3f 11 9c f0 3e
       -0.41207656 0.59907216 0.8079874 0.4699407
0001a0 4b de 5d be bb 42 ba 3e c8 ef ac 3e f9 dd 9a 3e
       -0.2166683 0.36379036 0.3377669 0.30247477
0001b0 69 1a ba 3e ef d9 ed be fd 13 9a 3d 97 15 28 be
       0.36348274 -0.46455333 0.07523344 -0.16414486
0001c0 8b c1 06 3f f8 fe dd 3e bd 18 40 3f d0 54 9d 3d
       0.52639073 0.43358588 0.7503775 0.07682192
0001d0 4b 5c 19 bf 01 e2 35 3e 04 06 a0 3b e3 f4 a9 be
       -0.5990645 0.17761995 0.0048835296 -0.33194646
0001e0 9b 70 ca be ab 41 03 be 8f d8 cd be c2 37 37 3d
       -0.39539036 -0.12818019 -0.40204284 0.04473091
0001f0 4e 9e 92 be 93 d9 d6 be 32 66 db 3d 8c 17 7a 3e
       -0.28636402 -0.4196287 0.107128516 0.24423045
000200 c4 e1 8a 3d dd 7a fd 3e ba 10 57 3f 8b 88 bd 3e
       0.067813426 0.495078 0.840099 0.37018237
000210 87 3c ed be 6d c5 81 be 43 8b 8e be 05 ec 0a 3e
       -0.4633524 -0.25345936 -0.27840623 0.13566597
000220 23 9c 06 bf 36 78 ba be 80 3e 38 bf d0 58 b2 be
       -0.52581996 -0.3641984 -0.7197037 -0.34833384
000230 05 13 f8 be 55 87 b0 3e cc 09 d2 3d c8 cc 2b 3e
       -0.4845201 0.3447825 0.10255775 0.16777337
000240 a4 5e a2 3b 28 54 c7 3e cc 92 25 be 5d a0 45 3e
       0.0049551297 0.38931394 -0.1616928 0.19299455
000250 4d d3 c0 3d f5 ef 4f be ce 22 3c bd 0f 5b e6 3d
       0.094153024 -0.2030638 -0.04593163 0.11247837
000260 02 40 ae 3e 7e 6f 67 be e6 c7 3e bf 95 d4 93 bc
       0.3403321 -0.22601125 -0.7452377 -0.018045703
000270 ad ad 92 be 2e db 64 bd 8e df 2b 3f bb 2f c3 bd
       -0.2864813 -0.05587309 0.6713799 -0.09530588
000280 f6 86 07 3f e9 25 29 be f2 4e 43 3f a8 94 95 be
       0.5294031 -0.16518368 0.76292336 -0.29214978
000290 80 4f 2b bf 4d 2b 74 be ce 6a f2 3e 13 02 e8 3d
       -0.6691818 -0.23844643 0.4734711 0.113285206
0002a0 c2 30 60 be 9c 21 09 3e 18 1b a4 bc a2 0e fe 3d
       -0.218936 0.13391727 -0.02003245 0.12405135
0002b0 0e 8f 55 be ac 92 46 be 91 59 f2 bd 9c e1 c8 bd
       -0.20855352 -0.19391888 -0.1183349 -0.098086566
0002c0 22 39 60 be 3e 2d 64 3e 13 74 15 be f7 8a c7 be
       -0.21896794 0.22282884 -0.1459506 -0.3897321
0002d0 b1 00 90 3d d1 22 3b 3e 5b b9 d6 be 1a ea 95 3e
       0.07031382 0.18275 -0.4193829 0.29280168
0002e0 ba 85 4c be bd ca 6b be 09 fd a1 3e 53 da 71 bb
       -0.19972888 -0.23026557 0.31638363 -0.0036903813
0002f0 9b a6 f4 3c 4b c1 05 3f c3 7c 26 be 44 b4 df 3e
       0.0298646 0.52248067 -0.1625853 0.4369222
000300 ed 14 b9 be 52 ab df 3e 49 4e a6 bd 46 67 70 be
       -0.36148778 0.43685395 -0.081204005 -0.23476896
000310 ab 8b 50 be ba 9c ef 3e 42 9f 00 3f 8c f5 c7 3e
       -0.20365779 0.4679926 0.5024301 0.39054525
000320 6d 57 a6 3e f5 13 8b be bf 77 86 3e 77 5e 30 bd
       0.32488576 -0.27163664 0.26263234 -0.04305884
000330 c6 23 8e be 6a 52 9e be 3c 21 da bd 09 15 3c be
       -0.27761668 -0.30922252 -0.1065087 -0.183674
000340 bb 78 a4 bc be 10 78 be 4c cb 15 bf 45 bb 58 be
       -0.0200771 -0.24225137 -0.5851333 -0.21165188
000350 1e 13 6e 3e 7a 1c 3c be 9a 3e 2d bf 04 2c c6 3e
       0.2324948 -0.18370238 -0.6767365 0.38705456
000360 c4 84 99 bc ba 8b ea bd 36 3a 58 bf 98 90 b8 be
       -0.018740065 -0.11452432 -0.8446382 -0.36047816
000370 ee 5a f9 bd 31 da d0 3e 24 08 c1 3d ae 46 eb 3e
       -0.121755466 0.40791467 0.09425381 0.45952362
000380 f5 58 76 3c d6 6f 27 3e 22 bf ea 3e 23 7f d4 3d
       0.015035857 0.16351256 0.45848948 0.10375812
000390 e8 61 5c 3e 2a fc 1f 3f 13 37 ed 3e 0b ff ec 3e
       0.21521723 0.62494147 0.4633108 0.46288332
0003a0 6c 82 94 3c ef 41 55 3d 00 12 0e ba 2a 2f 84 be
       0.018128596 0.052064832 -0.00054195523 -0.25817233
0003b0 98 5c c9 3e 14 d8 92 3e 80 a5 aa be db a4 be 3d
       0.39328456 0.2868048 -0.3332939 0.093087874
0003c0 01 df f3 3d 25 38 2c 3d 1c d2 00 be 73 74 44 3e
       0.11907769 0.04204573 -0.1258015 0.19185047
0003d0 1d bb 6e be 21 6a ca 3e 5c 69 3a 3f ee 56 1b 3e
       -0.23313566 0.39534095 0.72817016 0.1516988
0003e0 17 62 9b bd 56 74 b1 3d dd d6 47 3d 09 a2 14 3f
       -0.075870685 0.086647674 0.048788894 0.58059746
0003f0 5c 18 2b bd f4 7f ce be 5e 0d 08 bf 26 e7 98 be
       -0.041771278 -0.40331995 -0.53145397 -0.29863852

bias f4 [128]
000000 7d ca 65 bd 9d ba 48 3e 8a 6b 9e be c1 52 31 3f
       -0.05610131 0.19602437 -0.3094142 0.692669
000010 72 47 fc 3e 46 94 84 bd ec e9 2c be 98 92 b0 bd
       0.49273258 -0.064735934 -0.16886109 -0.086217105
000020 dc 9e 77 be 85 f9 bc be f6 dc a4 be 79 d9 e8 3e
       -0.24181694 -0.36909118 -0.3219983 0.45478418
000030 79 3f a9 bc 07 86 d9 3e 00 ca 7a 3d 52 e7 9d 3e
       -0.020660149 0.42485067 0.0612278 0.30840546
000040 55 48 05 3f b4 72 8f be 97 51 d0 3e 62 c3 0c 3f
       0.52063495 -0.280172 0.40687248 0.5498563
000050 53 0d bb bd b2 49 0d 3f 39 4d b4 bd 42 42 d0 be
       -0.09133401 0.55190575 -0.088037916 -0.4067555
000060 f3 b0 7f be b7 22 9a 3d aa 11 07 3f 78 34 04 3f
       -0.24969845 0.075261526 0.5276133 0.5164256
000070 5f f8 06 3e 9c a4 fc bd 07 73 7d 3e 7e d2 01 bf
       0.13180684 -0.12336084 0.2475091 -0.5071181
000080 60 d1 83 bd e8 a7 d2 be aa 8a fd 3d 95 cd e3 3d
       -0.064364195 -0.41143727 0.12379964 0.11123196
000090 65 8c 28 3f 5a 3a f1 3e 1b 0c cc 3d 47 2b 09 3e
       0.65839225 0.4711483 0.099632464 0.13395415
0000a0 55 ee fb be d5 aa 87 be aa 4e f5 3e ee 97 34 3f
       -0.4920527 -0.26497522 0.47911578 0.70544326
0000b0 a3 21 27 3e bc d1 ee 3e fd dc 26 3f bb 51 02 bf
       0.16321425 0.4664439 0.6518095 -0.5090596
0000c0 39 9b 03 3f 9d 76 17 3f 46 6c 12 3f 26 45 bc be
       0.51408726 0.59165365 0.5719646 -0.36771506
0000d0 26 c9 d2 3e fe ba 10 3e ad 4f ed bd b2 ec fb be
       0.4116909 0.14133832 -0.115874626 -0.49204022
0000e0 7a 8c 95 3e 95 4f ee bd 73 6c c0 be 21 37 dc 3e
       0.29208738 -0.11636273 -0.3758274 0.4301081
0000f0 a1 3d 20 3f 2d 9e 74 3e c3 ce d0 bc dc 28 23 3f
       0.6259404 0.23888464 -0.025489217 0.6373422
000100 ef a7 b9 3d 10 d5 b5 be 71 45 49 3d 84 84 12 3f
       0.09065234 -0.35514116 0.04913849 0.5723345
000110 09 e5 3a 3f 21 75 92 be 53 af cb 3e c3 b1 bb 3e
       0.7300573 -0.28604987 0.397822 0.3665906
000120 ab 73 03 3f fb 6c 92 3b bb a0 a2 be 64 a8 dc 3e
       0.5134837 0.004468558 -0.31763253 0.43097222
000130 d7 c0 08 3f f7 b1 d3 3e b5 f6 57 be 8b ce bc 3c
       0.5341925 0.41346714 -0.21090205 0.023047706
000140 ce ce 4e bd a0 35 cf 3c 4c b9 75 3e dc 9f 41 be
       -0.050490193 0.025294125 0.23996466 -0.18908638
000150 bf 83 c8 3e 12 bd bd bd 3d 05 be 3e 36 76 d4 3e
       0.39163014 -0.09264578 0.37113371 0.41496438
000160 bb 96 05 3f 04 02 f6 bd 43 f6 18 be c5 a1 23 3f
       0.5218312 -0.12012103 -0.14937691 0.63918716
000170 be 53 d8 3e 6b 61 17 3f b1 f9 16 3f d0 8a 98 3e
       0.4225139 0.59133023 0.5897475 0.29793406
000180 bf a5 ab be 46 33 dd 3e bc be c8 be 60 db b1 be
       -0.33524892 0.4320318 -0.3920802 -0.34737682
000190 56 29 b1 3d 47 82 09 be cb aa 0e 3f 6b 40 ec be
       0.08650462 -0.13428603 0.5572936 -0.46142897
0001a0 4f 32 9f be 4e c6 8a bd b2 be 9b be d2 27 b9 3b
       -0.3109307 -0.06776105 -0.30418926 0.005650499
0001b0 15 ea a1 3e f6 9f e7 3e 26 f9 da 3e b2 87 02 3f
       0.31623903 0.45239228 0.4276821 0.50988305
0001c0 01 e0 db be 28 75 24 3f a7 4e 70 be 51 ef 7d be
       -0.4294434 0.64241266 -0.23467503 -0.24798323
0001d0 f6 55 af bd 0d 2c 2f be 55 64 92 bc d0 2e bf 3e
       -0.085613176 -0.17106648 -0.017870108 0.37340403
0001e0 31 13 6a 3e e2 3d ed 3e c0 d7 06 3f f4 d3 80 be
       0.22858883 0.46336275 0.5267296 -0.25161707
0001f0 d1 a7 e5 be 2f 98 cd be fd a2 19 3f 91 0a 36 bd
       -0.44854596 -0.4015517 0.60014325 -0.04444367

weight f4 [128, 128]
000000 8d b1 f7 3b ca 7a 24 3d e4 c9 a6 bd ca ca 4b 3d
       0.0075590075 0.040156163 -0.08143976 0.04975394
000010 82 44 0d 3d cd 41 f6 3c ea 6d 9e bd bd 76 9d 3d
       0.034489162 0.030060673 -0.07735808 0.07688663
000020 6c 35 39 3d 1e 5f a0 bd d8 ec 83 bd 72 cf ab bd
       0.045216963 -0.07830642 -0.06441659 -0.083891764
000030 3c fe 26 bd 71 28 98 3b 08 c8 b6 bd a7 92 2b bc
       -0.0407698 0.004643493 -0.08924872 -0.010471976
000040 55 b8 80 bd b0 26 f5 3c 29 de d9 bd 14 d8 bc bd
       -0.062851585 0.029925674 -0.10638077 -0.09220901
000050 0f 56 12 b8 86 0e 57 bd 14 69 cb bc 76 40 6a bd
       -3.488926e-05 -0.052504085 -0.024830379 -0.05719038
000060 06 c2 8f bd 2a ad 1f bc 54 2c 26 bb 4b b5 9d bd
       -0.07019429 -0.009745875 -0.0025356011 -0.077005945
000070 02 78 2c 3d a3 66 ae bd 32 ab 53 bd c4 f0 59 bd
       0.042106636 -0.0851567 -0.051676936 -0.053208128
000080 02 03 4e 3d c7 35 12 3d 4a 6e 9f bc 98 ee 74 bd
       0.050295837 0.035695817 -0.01946177 -0.059797853
000090 fd e8 2a bd 80 05 41 3b 08 4d 8e bc 16 11 e3 bc
       -0.0417261 0.002945274 -0.017370716 -0.027718108
0000a0 6d 3d a5 3c b2 6f 87 3d d9 a1 53 bc e8 bf 76 bd
       0.020170892 0.06613101 -0.012917005 -0.06024161
0000b0 f3 c1 1c 3d 75 77 8b 3c 9a 40 27 bd 70 54 23 3d
       0.038270902 0.017024735 -0.040833093 0.039875448
0000c0 ec 2b 7b bd cd 00 cb bc 61 26 a9 3b a1 17 9b bc
       -0.061321184 -0.024780655 0.005162046 -0.018932166
0000d0 86 f0 d0 bc 95 d2 dc bd 5a 74 81 bc 50 b9 3c bd
       -0.025505316 -0.10782353 -0.015802551 -0.046075165
0000e0 f8 a4 31 bd e0 f8 20 3d b8 99 a7 3d 10 a3 87 bd
       -0.043370217 0.039299846 0.081836164 -0.066228986
0000f0 b3 32 81 bd 44 aa 51 3d b4 b1 cf bd 0c 50 c8 bc
       -0.06308498 0.05118777 -0.10141316 -0.024452232
000100 b5 36 86 3c 6e 95 cd 3c 86 a8 8a bd 6d f2 82 bc
       0.016383508 0.025095668 -0.067704245 -0.015984738
000110 26 b0 41 bd 2c d2 4c 3d 53 b1 31 bd 65 88 a6 bd
       -0.04728713 0.050005123 -0.043382 -0.08131484
000120 c0 3e 37 bd 17 da be 3d 74 4b 9a 3d 4f 90 e2 3c
       -0.044737577 0.09318941 0.07533923 0.027656702
000130 1b c8 a6 bd 52 dd fa bc 4d 5a 31 bd cc 68 3d bd
       -0.08143636 -0.030623112 -0.04329901 -0.04624252
000140 e0 89 65 3d 71 31 7d 3d 2f b0 b9 bc 4f 42 0b 3d
       0.05603969 0.06181473 -0.022667019 0.033998784
000150 48 85 79 bd 92 21 27 3d 4f c8 f9 3b 11 76 09 bb
       -0.060918123 0.0408035 0.0076227556 -0.0020974914
000160 d7 fa 77 3d 05 7e cc bc cd d5 2d 3d cd 4c 00 3d
       0.060541954 -0.024962435 0.042440224 0.031323243
000170 4a f0 bc bd bc 0d b4 bd 8d fc 6e bd 6e ad 99 bd
       -0.09225519 -0.08791682 -0.05834632 -0.07503782
000180 8f ab 73 bd 38 39 28 3c 03 37 30 3d ae 99 ab bd
       -0.059489783 0.010267548 0.043021213 -0.083789214
000190 a3 d5 6c bd 84 da 41 3a 48 ad 41 3d a1 1e 84 3d
       -0.057820927 0.0007394927 0.047284395 0.064511545
0001a0 73 a1 96 3c 7b 4a 64 bd d5 42 95 3d ab 2a fb bc
       0.018387532 -0.055735093 0.07288138 -0.030659994
0001b0 25 aa eb bc bc 60 c9 bb 52 66 01 bd 7a c2 59 3d
       -0.028767655 -0.006145565 -0.03159172 0.053163983
0001c0 66 f0 63 bd 80 39 31 3d 14 4a 1b bd ab 33 15 3d
       -0.055649184 0.043267727 -0.037912443 0.036426228
0001d0 a9 5f ee 39 8c ea 7b 3d fa 21 a6 3d 05 b7 5a 3d
       0.0004546617 0.06150298 0.08111949 0.053397197
0001e0 dc bb 37 3d fb 09 cd bd 14 7f 52 3d ec 62 a9 bd
       0.04485689 -0.10011669 0.051390722 -0.08270821
0001f0 44 1b cb bc 11 3c 89 3d 78 5d 0a 3d 3b 6e a8 bd
       -0.024793275 0.0670091 0.033780545 -0.0822415
000200 38 f6 6a bd 4c ea be bc 63 f3 82 be dc c6 0f 3e
       -0.05736372 -0.02330508 -0.25576314 0.14040703
000210 b6 73 18 3e 8b 97 45 bd 52 5e 00 be 39 3c 01 be
       0.1488789 -0.048240226 -0.1253598 -0.1262063
000220 1c db 4a be 62 ef 31 be 16 3a ba 3c ce 21 78 bb
       -0.19810146 -0.17376474 0.022732776 -0.0037861946
000230 e7 d0 86 3d 59 7e e7 3d 0b 1e 0b 3c d1 26 cf 3b
       0.06582814 0.11303396 0.0084910495 0.006321766
000240 c6 13 8d bc 4d e5 0a be 07 ee 2f 3e fa a0 17 3e
       -0.017221343 -0.13564034 0.17180644 0.14807501
000250 af cc c2 bd 2d 4a 60 3c 55 7b 0a bc 41 64 64 bd
       -0.095116965 0.01368956 -0.008452256 -0.055759672
000260 d8 25 90 bd cd f9 9b be 7b 0b cd 3d d8 07 d8 3d
       -0.07038468 -0.3046402 0.10011955 0.10548371
000270 5e e8 2c 3e a7 f0 da bc 64 72 26 bb aa 99 69 bb
       0.16885516 -0.02672608 -0.0025397772 -0.003564457
000280 7a bc 69 be cd 9f 94 bd 4e 4a e4 bd b1 26 cb 3d
       -0.22825804 -0.07257042 -0.11146985 0.09919489
000290 34 5e 33 3d 71 f6 8f 3d 30 74 1b 3d b5 19 c6 3d
       0.04379101 0.07029427 0.037952602 0.09672872
0002a0 4d f9 99 be 9d 11 54 be f2 5b aa 3d f9 53 35 3c
       -0.30073014 -0.20709844 0.083183184 0.011067384
0002b0 8a 25 cd 3b 35 0b 08 3e b5 3f 36 3e b2 80 3a bd
       0.0062605785 0.13285525 0.1779774 -0.04553289
0002c0 0b 1f f3 bc c7 25 39 3d d7 e9 a4 3d 6e ec 38 be
       -0.029677888 0.045202043 0.08052414 -0.18058941
0002d0 96 0f ba 3d 58 ae f1 3d 3d a6 73 be 67 c1 06 3d
       0.09085004 0.118008316 -0.23793884 0.032899287
0002e0 45 2a 26 3e 09 a8 82 be 0c 48 d7 bc 4c 68 80 3c
       0.16227062 -0.25518826 -0.026279472 0.015674733
0002f0 77 8f 12 3e 9e 8c 0f 3e 18 a4 ea 3a dc c3 25 3e
       0.1431254 0.14018485 0.0017901687 0.16187996
000300 a7 f8 0d 3d 20 ad 9a bd 52 47 64 be 46 f3 1a 3e
       0.03466096 -0.07552552 -0.22292832 0.15131864
000310 36 d8 e0 3d a3 1d 34 3d f2 a0 4d 3d 61 d7 f9 3d
       0.10978739 0.043973576 0.050202318 0.121992834
000320 1c b4 30 3d c8 df cd 3d c3 9a 16 be 9a 12 8a 3d
       0.043140516 0.100524485 -0.14707474 0.06741829
000330 1f 4f 13 3e da 3e 08 3e 81 d4 74 bb fc 41 06 3c
       0.14385651 0.13305226 -0.0037358108 0.008194443
000340 5b e2 89 be 73 d4 8c bd 9b 0f 18 3e 9c c0 0a be
       -0.26930508 -0.06876459 0.14849703 -0.13550037
000350 6e 27 cc 3d 84 fa 1b be 8f 2a 99 3d 7c 10 81 ba
       0.09968458 -0.15232283 0.074788205 -0.0009846832
000360 44 7b d2 3b ff 3d 63 be 54 37 16 3d 0a 39 28 3e
       0.006423386 -0.22191618 0.03667386 0.16428009
000370 5e 2f e1 3d cd 32 d3 3d d2 1a 76 3c 33 eb 4b 3e
       0.10995363 0.10312424 0.015021043 0.1991394
000380 93 56 bc bd 53 b3 00 3e 76 4e 0b bd fd 45 03 be
       -0.091962 0.12568407 -0.034010373 -0.12819667
000390 c4 a2 91 bd 47 51 45 be 99 9a db 3d 43 fc b8 bc
       -0.07111123 -0.19269286 0.107228465 -0.022581225
0003a0 63 46 a0 bd a7 33 0b be f9 e7 0e 3c c8 11 d3 bc
       -0.07825925 -0.13593923 0.008722299 -0.025765315
0003b0 bf 37 7a 3c ba 01 fe 3c 3a be f7 3d 52 41 73 3d
       0.01527208 0.031006683 0.1209683 0.059388466
0003c0 aa 5f 5f be f8 5e c5 3d 95 61 a3 bd 8b c6 b6 bd
       -0.21813837 0.096372545 -0.07977597 -0.08924588
0003d0 0a ae 21 3d 25 2a 4a bd 91 8b 49 be 01 88 20 3e
       0.039472617 -0.0493566 -0.19682147 0.15676881
0003e0 c5 84 0d 3c a4 a0 21 3e 67 58 25 3e 92 7c 4e bd
       0.008637612 0.15783936 0.16147004 -0.05041177
0003f0 40 8c 8d 3d ab 8c e4 bd fc 13 8e 3d fb e2 14 3d
       0.06911516 -0.11159643 0.069374055 0.036349278

bias f4 [128]
000000 63 4f 2b 3d df 0a 0f 3c f8 cc 11 3e d4 af 10 3d
       0.041823756 0.008730619 0.14238346 0.035323933
000010 1d 89 ef 3c 67 b1 da bc 6a 2c f6 3d f7 cf 96 3e
       0.029240185 -0.02669592 0.1202019 0.2945554
000020 c9 45 50 bd ae 64 79 3d 2f 48 08 3d 2c bc ea 3d
       -0.050847802 0.06088703 0.033271965 0.11461672
000030 e5 92 c5 bd 93 c9 7e bc d4 2a 8d 3d b5 9c d8 3d
       -0.096471585 -0.015550989 0.068929344 0.105767645
000040 6c b3 84 bd a0 65 d1 3b cb 41 1b be 88 a0 93 bd
       -0.064795345 0.0063902885 -0.15161817 -0.07208353
000050 b5 22 cc bb d3 fc 33 bd ce e7 fa 3c 76 fb 48 3a
       -0.0062297233 -0.043942284 0.030628111 0.0007666865
000060 c4 56 6a bc a3 95 be bd 3c b1 e9 3c d0 b0 8b bd
       -0.014302913 -0.09305885 0.028526895 -0.06820834
000070 37 3d 28 be e4 a1 b8 bd 2b 25 89 bd 31 a8 9d bd
       -0.16429602 -0.09015253 -0.06696542 -0.076980956
000080 4f ec 50 3e e3 02 bf 3d bf 2c dc bc 31 4e 07 3a
       0.20402645 0.093267225 -0.026876805 0.0005161493
000090 67 fd 54 3b d4 75 89 bd b8 7a 2a 3d e0 60 22 be
       0.0032499672 -0.06711927 0.04162094 -0.15857267
0000a0 64 e0 73 3d 0c 54 f8 bc 6b f2 a6 bd c4 ee 98 3d
       0.059540167 -0.030313514 -0.08151706 0.07467416
0000b0 f3 ac 4b bd d0 25 43 bd d6 af 79 bd a2 7a e3 3c
       -0.049725484 -0.047643483 -0.060958706 0.027768437
0000c0 0f 14 32 3d 47 1b 5f 3e aa 45 75 bd 45 00 73 3e
       0.04347616 0.21787749 -0.05988089 0.23730572
0000d0 63 30 1c 3d 42 79 43 bd 63 c4 00 3e 20 fa f7 bc
       0.038132083 -0.047723062 0.12574916 -0.030270636
0000e0 60 4c 4e 3b f4 06 7f bd 2d 85 57 bc 2e c6 51 3d
       0.0031478629 -0.06226249 -0.01315431 0.05121439
0000f0 a9 a8 1a 3e e0 cc 95 3d 60 bb c5 3c 10 6f 6e bd
       0.15103401 0.073144674 0.024137199 -0.058211386
000100 5e e3 97 bd 81 0b 27 be bb a5 1e 3d 96 49 7b 3d
       -0.07416414 -0.16312982 0.03873227 0.061349474
000110 67 7b 2d 3e 05 e3 1e 3c 5b 81 0a 3d 0f 85 33 3d
       0.16941606 0.00969768 0.03381477 0.043828066
000120 65 e4 5a 3d d1 55 43 3e c5 99 17 bd 69 42 5d 3e
       0.05344047 0.19075705 -0.03701188 0.21607365
000130 4d 18 b2 bc 83 fb 10 3e 10 1f 6a 3d f5 68 bb bd
       -0.021740103 0.14158444 0.05715853 -0.09150878
000140 3e 65 bb 3d 55 f8 db bd 46 2c 9c 3c 8d 93 9e bc
       0.0915017 -0.10740725 0.01906408 -0.019357467
000150 61 bf 88 3e 4b 31 6a 3a a6 99 01 3d bc c9 c2 bd
       0.2670851 0.0008933737 0.03164067 -0.09511134
000160 08 58 22 bd 4a 0d 36 3d 28 1e 21 3d 5e 57 ac 3d
       -0.039634734 0.044446267 0.0393354 0.084151015
000170 7a 4e 85 bb ac b6 84 3d a5 e7 96 3d 26 7c 26 bd
       -0.004068193 0.064801544 0.073684014 -0.04064574
000180 12 b8 43 bd 9f 3c 4a bd 17 9a b3 bc e2 23 6c bc
       -0.047782965 -0.04937422 -0.021924062 -0.014412852
000190 7b 9f 94 3d ea 88 e7 3d b3 33 5f bd e1 46 9f 3d
       0.07256981 0.11305411 -0.054492664 0.07777191
0001a0 9d 79 f9 bd c9 7c a5 bd fe f9 35 bd 89 08 fa 3c
       -0.12181399 -0.080804415 -0.044427864 0.030521648
0001b0 4a ae e7 3d 83 fe 20 be 67 97 ca bb 4d 5c 85 bd
       0.1131254 -0.15722089 -0.0061825993 -0.065117456
0001c0 3e c2 1a bd 88 ee 83 3d 07 9f be 3b 0f 35 c1 3c
       -0.0377829 0.064419806 0.0058172974 0.02358487
0001d0 70 1f 86 3d e8 32 71 3d 58 45 7b bd 69 0c 87 bd
       0.06548965 0.05888644 -0.06134543 -0.06594164
0001e0 02 29 ef bd 37 b1 56 bd 53 4a bb bd 60 0f 83 bd
       -0.116777435 -0.0524151 -0.091450356 -0.06399417
0001f0 7e b0 51 3e 28 56 08 3d 63 50 13 3d 0b 06 02 3e
       0.20477483 0.03328529 0.035965335 0.12697618

weight f4 [2, 128]
000000 b1 f9 93 3c 1f 72 aa 3d ba 5c aa 3d 74 34 d7 bb
       0.018063398 0.08322548 0.083184674 -0.006567532
000010 45 1e 20 be 20 9e 03 bd 72 10 f8 3d cf c5 d9 3d
       -0.15636547 -0.03213322 0.12112512 0.10633432
000020 32 f8 72 be 9e 7f 99 bd 90 a3 c2 bc 4f a6 ff 3d
       -0.23727491 -0.07495044 -0.023759633 0.12482893
000030 96 7d 3b be d9 3d 37 bb c2 7f da 3d 1f f8 96 3d
       -0.18309626 -0.0027960448 0.10668899 0.07371544
000040 10 40 8d bd a3 6f e1 3d 18 8f 89 be 9f 35 b0 bc
       -0.068969846 0.11007621 -0.26866984 -0.021509944
000050 8f d1 19 bd 1a 3f 08 3b 9b a9 7c bd dc 39 e5 3c
       -0.037553366 0.0020789565 -0.061685186 0.027981691
000060 d7 41 55 3d 7f c1 76 bd d3 58 aa bd 1a 1a 8e 3d
       0.052064743 -0.060243126 -0.08317723 0.06938572
000070 c8 ec 8d be 82 93 fb 3c c0 07 85 bd 48 7a 30 3d
       -0.27719712 0.030709986 -0.06495619 0.043085366
000080 f7 ea c6 3d 65 6b 15 be 80 50 a0 bd 97 66 0f 3e
       0.09712785 -0.14591749 -0.07827854 0.14003979
000090 4a 26 25 bc 3e 81 a8 3c f4 8a 01 be 57 0a 72 be
       -0.01007993 0.02056944 -0.12650663 -0.23636757
0000a0 32 e2 14 3c df 5d e2 3d cf 0b 61 bb 8e 69 a3 3d
       0.009087132 0.11053061 -0.0034339314 0.07979117
0000b0 39 5c ad 3d b2 20 9b 3d e1 f9 5d 3d dc 3d 21 3d
       0.08464856 0.075745955 0.05419338 0.039365634
0000c0 85 b1 f2 3d 18 84 b9 3d 13 39 93 bd b3 8e eb 3d
       0.118502654 0.09058398 -0.071886204 0.11501827
0000d0 65 6e 4b bd fe 13 7e bc eb 64 d4 3d 8a 2b a7 3c
       -0.049665827 -0.015507696 0.10370811 0.020406503
0000e0 86 c2 b3 3d 99 bb 0d be bd f6 83 3c b9 86 c0 3c
       0.08777337 -0.13841094 0.016108865 0.02350174
0000f0 9a e1 da 3d ca 32 9d 3c 5f 1d a3 3d 20 3e 23 bd
       0.10687561 0.019189257 0.079645865 -0.03985417
000100 22 0b cc bb 8b 59 92 be c1 3c d5 3d ee 92 66 bd
       -0.006226913 -0.2858394 0.104119785 -0.056292467
000110 6b 5f f3 3d ae 72 52 bc 76 92 13 bd 30 84 1e 3a
       0.11883434 -0.012844725 -0.036028348 0.0006046919
000120 1b 8d a4 bc 90 fe a6 3d 65 3b 48 be 6b 1a bb 3d
       -0.020086816 0.08154023 -0.19553907 0.09135898
000130 19 0b d7 3d 64 5f 0c 3e c3 48 f2 bb 26 53 3d bd
       0.105001636 0.13708264 -0.007393928 -0.046221875
000140 d7 04 be ba 74 f4 3d be 0d 1b c9 ba 6c 17 7c 3d
       -0.0014497292 -0.18550283 -0.0015343145 0.061545774
000150 2d c9 f8 3d da 37 2b bd 18 65 f2 bc a6 26 56 ba
       0.12147746 -0.04180131 -0.02958922 -0.0008169211
000160 94 97 78 be 8f 47 1c bd fb 21 bb 3d b7 11 c6 3d
       -0.24276572 -0.03815418 0.09137341 0.096713476
000170 88 96 1d be b7 ca 80 bd ce f4 be 3d ea 90 f6 3c
       -0.15389454 -0.06288665 0.093240365 0.030098397
000180 0b 2d 4c bd c5 a8 6b bc 58 c8 31 bd 7f 0d 00 bd
       -0.049847644 -0.0143834995 -0.043403953 -0.03126287
000190 e6 07 51 3c bd 02 0b 3e c6 94 87 bd ec 9f 47 be
       0.012758231 0.13575263 -0.06620173 -0.19494599
0001a0 42 0a 75 be 5a a9 b6 3c 76 b2 57 bd fb 2e a7 bd
       -0.23929694 0.02229755 -0.052660428 -0.08163258
0001b0 7f 5d e8 3d dd cd 79 be ce 30 1f 3d d3 11 0b be
       0.11345958 -0.24394937 0.038864903 -0.13581018
0001c0 e3 29 20 bd 23 e4 11 bd 2e c5 6b bd 87 40 43 bd
       -0.039102446 -0.03561796 -0.057561092 -0.04766896
0001d0 99 e1 e5 3c cd 0e b4 bc 30 7f 31 bd 7c 43 8b 3c
       0.028061675 -0.021979714 -0.043334186 0.016999952
0001e0 be f6 6f be 97 c8 85 bd d1 4f 64 bd 10 6c dc 3d
       -0.23433968 -0.065324 -0.05574018 0.10762799
0001f0 b4 5f d1 3d 73 61 26 3d ab 64 3f bd 9e fa af 3d
       0.10223332 0.04062028 -0.046726864 0.08592723
000200 ea 12 7c bd a1 86 14 3e 39 9f af 3d bc 1a 05 bd
       -0.061541475 0.14504482 0.08575291 -0.0324962
000210 8f dd a3 bd ce c9 06 bd 2b 0c b2 3d 98 33 d6 3d
       -0.08001243 -0.0329073 0.08693727 0.104590595
000220 84 30 76 be 3a b4 8b bc a7 55 b0 bb 2a ae 86 3d
       -0.24041945 -0.017053712 -0.0053813043 0.06576188
000230 82 0a 5d be 47 84 a0 bc c0 bb a5 bc 59 91 db 3d
       -0.2158604 -0.019594325 -0.020231128 0.10721082
000240 04 4b 68 3d 1b e1 80 3d 5d 2d 34 be 74 59 20 bb
       0.056712165 0.062929355 -0.1759543 -0.002446738
000250 85 6f 72 3c d6 c4 34 bc 74 24 5f bd 9a a9 5f 3d
       0.014797096 -0.0110332575 -0.054478124 0.054605104
000260 74 91 78 bc 43 3d 76 bc f9 ba eb bb 7a 0b 62 bc
       -0.0151713975 -0.015029254 -0.0071939197 -0.013796682
000270 70 d4 6a be 28 c9 b7 bc b7 29 58 3d e4 a0 0d bd
       -0.22932601 -0.022434786 0.052774157 -0.034577265
000280 4c ff e2 3d c3 79 3a be 73 94 35 bc c4 cc 45 3d
       0.1108385 -0.18210511 -0.011082756 0.048290983
000290 fd 22 ea bc c7 6e 8e bc a5 c8 f4 bd f6 5f 6a be
       -0.028581137 -0.017386807 -0.119523324 -0.22888169
0002a0 be f2 45 39 3a 9d 27 3b cd 36 32 bd 49 57 c5 3d
       0.00018877813 0.0025575892 -0.043509293 0.09635789
0002b0 43 77 18 bd ac ad 7f 3d 43 89 0f bd 2d 04 d9 bd
       -0.03722311 0.062421486 -0.035043012 -0.105964996
0002c0 5b ce 8c 3d 2f 63 d1 3d 45 9e e5 3b 4c 28 f7 3d
       0.06875297 0.10223996 0.0070073926 0.12068233
0002d0 72 54 2a bd 18 ed b4 bc 7b 67 10 3e 39 3a 0d 3e
       -0.04158444 -0.022085711 0.14101975 0.13791741
0002e0 6e b3 24 3d e8 14 54 be b0 a8 4c 3d 08 66 bf 3d
       0.04021018 -0.207111 0.04996556 0.09345633
0002f0 b7 53 8f 3d 8e 32 db 3d 5d 33 dd 3d 3b d0 94 3d
       0.06998389 0.10703002 0.108008124 0.07266279
000300 fd ed 1f 3d 9f 3f 71 be c8 8d a9 3d b9 a7 aa bd
       0.039045323 -0.23559426 0.08278996 -0.08332772
000310 bb 02 c5 3d 21 aa 61 bd 9b 3c 2c bd 6e 05 7e be
       0.096196614 -0.05509389 -0.042049985 -0.24806759
000320 15 bc 40 3b 1a 1c a2 3d 7f 08 19 be 6f 5a ba 3d
       0.002940898 0.07915516 -0.14944647 0.0909928
000330 25 0e 1f 3d 32 38 03 3e 25 cd c5 bb 3a e1 80 bd
       0.03883185 0.12814406 -0.006036418 -0.062929586
000340 9a 03 17 3e a9 51 ad be f8 fb bb 3c f7 8e 30 3d
       0.14747468 -0.33851364 0.022947297 0.043105092
000350 8f 08 e0 3d f8 6a 41 bd 5e 46 f7 3c dc 17 1c bd
       0.109391324 -0.047221154 0.03018492 -0.03810869
000360 94 51 7e be 79 e3 07 be 96 c1 f7 3d 12 59 a3 3d
       -0.24835807 -0.13270368 0.120974705 0.07975973
000370 d8 af 4b be f5 95 20 3c 62 c5 31 bd fa a1 5d bd
       -0.19891298 0.009801378 -0.04340113 -0.05410955
000380 ac 55 df bc f7 91 69 3d 96 fc 38 3c 7d a6 b9 39
       -0.027262531 0.05702397 0.01129069 0.00035409993
000390 14 5a 07 3e 9d 2d f1 3d e5 b9 31 3d fe 7c 69 be
       0.13217956 0.11776278 0.043390173 -0.22801587
0003a0 ce ec a3 be 9d 30 40 bc 65 a0 87 3c c1 ed 19 3d
       -0.32016605 -0.01173034 0.016555974 0.037580255
0003b0 6d d7 a2 3d 22 9f 4d be ba 76 a4 3d d6 54 59 be
       0.079512455 -0.20080236 0.08030458 -0.21223769
0003c0 35 e9 49 bc 9a c5 e7 ba 5e 31 9c bd 04 69 d1 3d
       -0.012323667 -0.0017682791 -0.076266035 0.10225108
0003d0 0a 7d d0 3d 41 9a 0b 3d 94 71 85 3c a2 a7 48 3d
       0.10180099 0.034082655 0.01628951 0.048987992
0003e0 7a 11 5d be c6 73 b7 bc 78 7d d1 bc 18 a1 91 bc
       -0.21588698 -0.022394072 -0.025572523 -0.01777701
0003f0 74 56 fc 3d 10 d4 97 bd a6 1f 4e 3c 7b a1 b7 3d
       0.12321177 -0.074134946 0.012580788 0.08966347

bias f4 [2]
000000 a3 ba 0c 3d 9d 55 5e 3d
       0.03435768 0.054280866
