dqn2_q_network.pth (torch, 72847 bytes, 6 tensors)

weight f4 [128, 4]
0	0x3e1265de	0.14296672
1	0xbd424580	-0.04742956
2	0x3da13ee1	0.07873321
3	0x3e12b933	0.1432846
4	0x3e34d3f3	0.17658977
5	0xbe3ff43a	-0.18745509
6	0xbde6c42c	-0.112678856
7	0x3ec3aaae	0.38216156
8	0x3ebcfbdb	0.369109
9	0x3ec84a99	0.39119413
10	0xbc80c4c4	-0.015718825
11	0x3e377b1c	0.17918056
12	0xbd87225b	-0.0659835
13	0xbd59f02b	-0.053207558
14	0x3ea368a1	0.31915763
15	0xbe817795	-0.25286546
16	0x3ec86aae	0.3914389
17	0x3e8f7930	0.28022146
18	0x3ebc9cbc	0.3683833
19	0x3e9a1ac3	0.30098543
20	0xbed9c3f6	-0.4253232
21	0x3dbdb0d3	0.09262242
22	0xbca32bd9	-0.01991837
23	0xbe0d8c8b	-0.13823144
24	0xbe7930cf	-0.24335025
25	0x3c70406e	0.014663799
26	0xbe2ed17f	-0.17072104
27	0xbebd9ab7	-0.370321
28	0x3dfffcdc	0.12499401
29	0x3c4284e8	0.011872508
30	0x3f33e1ad	0.7026623
31	0x3ea218b3	0.3165947
32	0x3ebcfcd5	0.36911646
33	0xbeeb996b	-0.46015486
34	0x3e848729	0.2588437
35	0xbe817ddb	-0.25291333
36	0xbf0a7e70	-0.5409918
37	0x3e3f76ba	0.18697634
38	0xbe1b4b65	-0.1516548
39	0xbdce62a1	-0.10077406
40	0x3d14cfdd	0.036331046
41	0x3e46b5d2	0.19405296
42	0xbe4365f2	-0.19081858
43	0xbced2da2	-0.028952423
44	0xbea76110	-0.3269124
45	0x3e6c0c04	0.23051459
46	0x3ebb1d27	0.3654568
47	0xbe009619	-0.12557258
48	0xbd62b848	-0.055351526
49	0x3eca3f96	0.39501637
50	0x3dadab45	0.08479933
51	0x3e1c79fa	0.15280905
52	0x3e59c28e	0.21265623
53	0x3e6eb7b8	0.2331227
54	0xbe92dc4d	-0.286837
55	0xbe93bd63	-0.28855428
56	0x3ecf142f	0.40445086
57	0xbcb4fa5f	-0.022092042
58	0xbe99b7f6	-0.30023164
59	0x3ec51071	0.38489106
60	0x3e0cefd1	0.13763358
61	0xbea15e93	-0.31517467
62	0xbed287e0	-0.4111929
63	0x3e940610	0.28910875
64	0x3df217fb	0.1182098
65	0xbee3b58a	-0.4447444
66	0x3d6c54b4	0.057697967
67	0xbb20cb1f	-0.0024535132
68	0xbeeb9170	-0.46009398
69	0xbe64959d	-0.22322698
70	0xbe678f23	-0.22613196
71	0xbe897a39	-0.2685106
72	0xbf08ba38	-0.5340915
73	0x3e8f280d	0.27960244
74	0x3d257a99	0.04040012
75	0x3e96a845	0.29425254
76	0xbe6f09d7	-0.23343597
77	0x3ea3b877	0.31976673
78	0xbedff94c	-0.43744886
79	0x3e623340	0.22089863
80	0x3e759747	0.23983489
81	0x3ec4c48f	0.38431212
82	0x3b66f9d5	0.0035244126
83	0xbdfc10f1	-0.12307919
84	0xbe95c01f	-0.2924814
85	0x3eed0e08	0.46299767
86	0xbe84f7fd	-0.2597045
87	0x3ec35136	0.38147897
88	0xbe4d0ba5	-0.20023973
89	0x3ed16677	0.40898487
90	0xbf109d98	-0.5649047
91	0xbed0103d	-0.4063739
92	0xbcd1776e	-0.025569644
93	0x3eccd04d	0.4000267
94	0xbeac87b9	-0.33697298
95	0xbeba1f57	-0.36352035
96	0x3ea45234	0.32093966
97	0x3b9e3951	0.00482861
98	0xbf0b3279	-0.5437389
99	0x3e23cb79	0.15995587
100	0x3e21a8a5	0.15786989
101	0x3efc3cd9	0.49265173
102	0x3ec53548	0.38517213
103	0x3e421db0	0.18956637
104	0xbe864417	-0.26223823
105	0x3dc3ec7b	0.095665894
106	0x3e00d060	0.12579489
107	0xbee9e5c7	-0.4568312
108	0xbe313d73	-0.17308597
109	0x3d985766	0.07438545
110	0xbf024caa	-0.5089823
111	0x3d91f9af	0.071277015
112	0xbea9635c	-0.33083618
113	0x3ee29165	0.44251552
114	0x3eafca8f	0.34334227
115	0xbecdbc76	-0.40182847
116	0x3ee7dca0	0.4528551
117	0xbea82a18	-0.32844615
118	0xbdaf2b44	-0.08553174
119	0x3e332c37	0.17497335
120	0x3e78cee5	0.24297674
121	0x3edc7ab6	0.4306237
122	0xbe4135fd	-0.18868251
123	0xbe962639	-0.29326037
124	0x3edf2cf7	0.43588993
125	0xbdef7d2f	-0.11693799
126	0x3d003e86	0.031309627
127	0x3e3d45dd	0.18483682
128	0xbead220a	-0.33815032
129	0x3e55a3c4	0.20863253
130	0x3e8c394d	0.27387467
131	0x3e013442	0.12617591
132	0xbf35ff9c	-0.71093154
133	0x3e713565	0.23555525
134	0x3e223f53	0.15844469
135	0x3d7831be	0.060594313
136	0xbe8381ae	-0.25684875
137	0xbeda6fea	-0.4266351
138	0x3e1b87ee	0.15188572
139	0xbe3f1eaa	-0.18664041
140	0xbe97a845	-0.29620567
141	0xbebbb4c2	-0.36661345
142	0xbe24c9ee	-0.16092655
143	0x3eaff5ff	0.34367368
144	0x3e4b733d	0.19868179
145	0x3e8d5797	0.27605888
146	0xbef303ad	-0.47463742
147	0xbec60deb	-0.38682494
148	0x3d1c2a71	0.038126413
149	0xbe595e4c	-0.21227378
150	0xbeee05d1	-0.46488813
151	0x3e2ce2fc	0.16883463
152	0xbe6cd984	-0.2312985
153	0xbe847a8d	-0.2587475
154	0x3e5eaa43	0.21744637
155	0x3cafd4bd	0.021463746
156	0x3ef5b0f9	0.47986582
157	0x3e079abb	0.13242619
158	0xbe39eb09	-0.18156065
159	0x3d925f97	0.071471386
160	0x3e25194a	0.16122928
161	0xbe8b7555	-0.27237955
162	0xbedbe2a6	-0.42946357
163	0xbe9cb955	-0.30610147
164	0x3d66f5b7	0.056386676
165	0xbea65a86	-0.3249094
166	0x3e8759ca	0.2643569
167	0xbeb0b6d8	-0.345145
168	0xbe8697e9	-0.26287773
169	0x3ceb1b85	0.028699646
170	0x3e149e8a	0.14513603
171	0x3dbde66c	0.09272465
172	0x3ef19485	0.47183624
173	0x3e90eef6	0.28307313
174	0x3e711857	0.23544441
175	0xbedb5648	-0.42839265
176	0xbece873c	-0.4033755
177	0x3e776d15	0.24162705
178	0xbf042f08	-0.51634264
179	0x3eb6fbec	0.35739076
180	0x3e85750e	0.26065868
181	0x3eff498a	0.49860793
182	0x3f23e4a3	0.64020747
183	0x3f07a399	0.52984005
184	0x3c8fea85	0.017567882
185	0xbea2a5a9	-0.31767014
186	0x3e8e4e90	0.27794313
187	0xbeb07dbe	-0.34470934
188	0x3e488d03	0.19585042
189	0xbd57823a	-0.052614428
190	0xbee456fa	-0.44597608
191	0xbe1cfd7b	-0.1533107
192	0x3e127e3c	0.14305967
193	0x3ee9f49c	0.45694435
194	0x3f00da68	0.5033326
195	0x3daab675	0.08335582
196	0x3e2a0af6	0.16605744
197	0x3d759b82	0.059962757
198	0xbdc30753	-0.09522881
199	0xbecee829	-0.404115
200	0x3e9185a4	0.28422272
201	0xbe6e60c6	-0.23279104
202	0xbf260db6	-0.6486467
203	0xbef931d5	-0.4867083
204	0x3ed8ab74	0.42318308
205	0x3e892772	0.26787907
206	0xbed30833	-0.41217193
207	0x3e09c7ba	0.13455096
208	0x3e97eba7	0.29671976
209	0xbe947a56	-0.28999585
210	0xbe26772e	-0.16256401
211	0x3e875903	0.26435098
212	0x3ecfb1f7	0.40565464
213	0x3e79e56e	0.24403927
214	0xbe295b9e	-0.16538855
215	0xbea252fc	-0.31703937
216	0x3e054ca3	0.13017516
217	0xbe8c34fb	-0.2738417
218	0xbda1ea3d	-0.079060055
219	0xbe8436db	-0.258231
220	0x3ea63a9c	0.3246659
221	0xbeaff8e2	-0.3436957
222	0xbf0e503b	-0.5559117
223	0xbea0950f	-0.31363723
224	0x3ea41e63	0.32054433
225	0x3df268c8	0.11836392
226	0x3ea8b179	0.329479
227	0x3d9502e2	0.072759405
228	0xbeb1887f	-0.3467445
229	0x3eaf9cb2	0.34299237
230	0x3f100178	0.5625224
231	0xbdc625fd	-0.096752144
232	0xbf107b83	-0.56438464
233	0x3ded12bd	0.1157584
234	0xbe9da506	-0.30789965
235	0x3e6ec2df	0.23316525
236	0x3e239b83	0.15977292
237	0x3cae8703	0.021304613
238	0xbec9d667	-0.39421389
239	0x3d540967	0.05176678
240	0x3eae2829	0.34015015
241	0xbf00d139	-0.5031925
242	0xbf030f0e	-0.51194847
243	0xbedadbf3	-0.42745933
244	0x3e5eefeb	0.21771209
245	0xbe08268e	-0.13295957
246	0x3e507cac	0.20360059
247	0xbdf205dc	-0.11817524
248	0x3df838b0	0.12120187
249	0xbd817853	-0.06321778
250	0x3c3a76cb	0.0113808615
251	0xbe70f091	-0.23529269
252	0xbead5cbc	-0.33859813
253	0xbe459063	-0.1929336
254	0xbea40c83	-0.32040796
255	0x3e900ee0	0.2813635

bias f4 [128]
0	0x3f04f402	0.51934826
1	0x3e59a293	0.21253423
2	0x3e7c13a4	0.24616867
3	0x3f145436	0.57940996
4	0xbe6bb7d3	-0.23019342
5	0x3f03951e	0.5139941
6	0xbedb7fee	-0.4287104
7	0xbe13bbb7	-0.14427076
8	0x3e3225c2	0.17397216
9	0x3f0d45d1	0.55184656
10	0x3f00cde8	0.5031419
11	0xbecaa358	-0.39577746
12	0x3dff624f	0.12469923
13	0x3ede7b08	0.4345324
14	0x3e9dc03e	0.30810732
15	0x3e00f660	0.12593985
16	0xbeba47ae	-0.36382812
17	0xbe0814be	-0.13289163
18	0xbd887737	-0.066633634
19	0x3e53530a	0.20637146
20	0xbea9b8b9	-0.33148745
21	0x3eadec4c	0.33969343
22	0xbedf6b12	-0.43636376
23	0x3e27c4c6	0.16383657
24	0x3d9b52bd	0.075841404
25	0xbea15aa6	-0.31514472
26	0xbe210056	-0.15722784
27	0x3e8e5aaa	0.27803546
28	0xbd8a6889	-0.0675822
29	0x3f124ea6	0.5715126
30	0xbd498588	-0.04919961
31	0xbeb8d0d6	-0.3609683
32	0x3e3b66dc	0.18300956
33	0xbc5765aa	-0.013146797
34	0x3e154a65	0.1457916
35	0x3e7e4b3e	0.2483339
36	0xbe5c9d0c	-0.21544284
37	0x3f0bdcaa	0.5463358
38	0xbf06f38d	-0.5271538
39	0x3ddcacbd	0.10775135
40	0x3ecde44d	0.40213242
41	0xbeaa373a	-0.3324526
42	0x3f07e0f5	0.5307763
43	0xbe867ecc	-0.26268613
44	0x3f04272c	0.5162227
45	0xbdee4d72	-0.11635865
46	0x3f151619	0.58236843
47	0x3ec1cf3c	0.3785342
48	0xbe03ae88	-0.12859547
49	0x3f19ffbd	0.6015585
50	0xbdf8bf5f	-0.12145876
51	0x3e68e50c	0.22743624
52	0x3e74e2d1	0.23914649
53	0x3d6cf31b	0.05784903
54	0xbeef81d7	-0.46778747
55	0x3b0d807c	0.0021591475
56	0x3e8463de	0.25857443
57	0xbed6e44a	-0.41971046
58	0xbdb7d1bc	-0.089755505
59	0x3eca8e69	0.39561775
60	0x3e05f04d	0.13079949
61	0x3eaadaf3	0.3337017
62	0x3e69dc1b	0.2283787
63	0xbf08332d	-0.5320309
64	0x3e4439b1	0.19162633
65	0xbe68c52d	-0.22731467
66	0x3e2fe748	0.1717807
67	0xbeb589cf	-0.35456702
68	0xbeef5490	-0.46744204
69	0x3f0e0ebe	0.55491245
70	0xbf0c10da	-0.54713213
71	0xbe55a0f4	-0.2086218
72	0x3e4df7d2	0.20114067
73	0x3f1555bc	0.58333945
74	0xbd6cfb73	-0.05785699
75	0xbece3974	-0.40278208
76	0xbf117cd1	-0.5683108
77	0xbec12077	-0.3772008
78	0xbd4c3fcb	-0.049865525
79	0xbda8a73b	-0.08235022
80	0xbe0f8b6d	-0.1401803
81	0x3eb9750b	0.3622211
82	0x3ea3aeeb	0.3196939
83	0xbebbe2bd	-0.36696425
84	0xbddf965a	-0.10917349
85	0x3ee2b519	0.44278792
86	0xbee4a282	-0.44655234
87	0xbd78652b	-0.060643356
88	0xbef96d84	-0.48716366
89	0x3ea49640	0.32145882
90	0xbd7db009	-0.06193546
91	0xbe52cfe4	-0.20587116
92	0x3f025b93	0.5092098
93	0xbd866cba	-0.06563707
94	0x3f08f3eb	0.5349719
95	0xbeacfa08	-0.3378451
96	0x3e217278	0.15766323
97	0x3e5084b0	0.20363116
98	0xbe8c5481	-0.2740822
99	0x3ea2938d	0.31753197
100	0x3ef008e6	0.4688179
101	0xbec94c21	-0.39315894
102	0x3eb8945c	0.3605069
103	0xbee85e99	-0.45384672
104	0x3ebcec32	0.36898953
105	0x3ecb84cb	0.3974975
106	0x3e28b90c	0.1647684
107	0xbe4449ba	-0.1916875
108	0xbe330866	-0.17483672
109	0x3e9a2dd7	0.30113098
110	0xbdf0f8eb	-0.11766227
111	0xbee6cf81	-0.45080188
112	0xbe647e30	-0.22313762
113	0xbe6b887b	-0.23001282
114	0xbe320fd8	-0.17388856
115	0x3e9aab0f	0.30208632
116	0x3ec674cd	0.38760987
117	0xbe721ba9	-0.23643364
118	0x3f15dad6	0.5853704
119	0xbe52b3f6	-0.20576462
120	0xbf0a23aa	-0.5396067
121	0x3ea3f0bf	0.32019612
122	0xbf072eb9	-0.5280567
123	0xbe58151b	-0.21101801
124	0x3e703be7	0.23460351
125	0x3e137583	0.14400296
126	0x3ea53ddc	0.32273757
127	0xbed302b1	-0.4121299

weight f4 [128, 128]
0	0x3d7b8172	0.061402746
1	0xbdc30bbb	-0.09523722
2	0x3b3bce49	0.002865689
3	0xbd1e617c	-0.038667187
4	0xbc84346e	-0.016138282
5	0x3cbbbc25	0.022916863
6	0xbd6c134d	-0.057635594
7	0xbdc458c8	-0.09587246
8	0xbd8ea41d	-0.06964896
9	0xbd460151	-0.0483411
10	0x3d6ffa92	0.05858857
11	0x3d1aa2f7	0.03775307
12	0xbd332de8	-0.04374495
13	0xbd04988d	-0.032372046
14	0xbdc8dee0	-0.09808135
15	0xbd9561c9	-0.07294042
16	0xbdd4274b	-0.10359057
17	0x3d11321c	0.03544818
18	0xbd62d8ed	-0.055382658
19	0x3b988b26	0.0046552597
20	0xbc441078	-0.011966817
21	0xbdd4576b	-0.10368236
22	0x3ceb9ace	0.02876034
23	0xbc9bed3a	-0.019034017
24	0xbdc0aec3	-0.09408333
25	0xbc266563	-0.010156008
26	0xbbf44f9b	-0.007455779
27	0x3c87e4fa	0.016588677
28	0xbb819268	-0.0039542206
29	0xbd4094a2	-0.047016747
30	0x3c8fa4a6	0.017534565
31	0x3cff717d	0.031182045
32	0xbd8427a2	-0.06452872
33	0x3cbaf7c4	0.022823222
34	0xbd52c0bb	-0.051453333
35	0xbd58f85c	-0.05297123
36	0xbd250a0e	-0.040292792
37	0x3d5d672a	0.054053463
38	0xbc9791e4	-0.018502183
39	0x3c4c1cb6	0.012458017
40	0x3c495bb6	0.012289932
41	0x3d893be8	0.06700879
42	0xbd55df42	-0.05221487
43	0xbdd2740e	-0.10276042
44	0xbdca007e	-0.09863375
45	0xbb9a4b25	-0.004708665
46	0xbce18e19	-0.027533578
47	0x3bc0bc73	0.00588184
48	0x3d0c5736	0.03426286
49	0xbdab95a9	-0.08378155
50	0xbdda2e42	-0.10653354
51	0xbcc149dc	-0.02359479
52	0xbd1b2f9f	-0.037887212
53	0xbda98afd	-0.08278463
54	0xbcaf4785	-0.021396408
55	0x3cb8f508	0.022577778
56	0xbdbe511d	-0.09292815
57	0xbda21d36	-0.07915728
58	0x3da6919f	0.08133244
59	0x3c1ab9f5	0.00944375
60	0xbd66c44b	-0.056339543
61	0xbb3a46bb	-0.0028423506
62	0xbd5dcef6	-0.05415245
63	0x3c96a04d	0.018386984
64	0x3d5cd59d	0.053914655
65	0xbd71f107	-0.059067752
66	0x3c6ad234	0.014332343
67	0xbd3b8fb0	-0.045791328
68	0x3d6c001e	0.0576173
69	0xbdad0704	-0.08448604
70	0x3d537daa	0.051633514
71	0xbd324f45	-0.04353263
72	0x3d3338f1	0.043755475
73	0x3ceee801	0.029163362
74	0x3d4c5efa	0.049895264
75	0xbd41d5a8	-0.0473229
76	0xbd3dae1e	-0.04630863
77	0xbdbe32d4	-0.092870384
78	0x3d00ee5f	0.03147733
79	0xbcc96fae	-0.024589386
80	0x3d72d045	0.059280653
81	0xbd3920c9	-0.045197282
82	0xbc9d3ad0	-0.019193083
83	0xbdcb808c	-0.09936628
84	0x3d334b3a	0.043772914
85	0xbd8abe1e	-0.06774543
86	0x3d63733a	0.05552981
87	0xbd33d233	-0.043901633
88	0xbd85bf9d	-0.06530688
89	0x3cbaadac	0.022787891
90	0x3d834531	0.064096816
91	0xbda28147	-0.07934814
92	0x3cc5fa99	0.024167346
93	0xbd28d907	-0.0412226
94	0xbd67b435	-0.056568343
95	0x3bf4db62	0.0074724415
96	0xbd82be98	-0.06384009
97	0xbd849f49	-0.06475694
98	0xbdc9125c	-0.09817955
99	0x3c93868e	0.018008497
100	0x3cc08631	0.023501487
101	0xbdaf7b72	-0.08568467
102	0xbc3d1ff5	-0.011543264
103	0xbd57746e	-0.05260127
104	0x3ce0f78b	0.027461788
105	0xbdce04fc	-0.100595444
106	0x3c912e25	0.017722199
107	0xbdb5dca7	-0.08879977
108	0xbd9d6a79	-0.07686324
109	0xbbb7ee6a	-0.005613138
110	0x3d191a01	0.037378315
111	0x3d058fe2	0.03260792
112	0x3b72079a	0.00369308
113	0x3ccb1a0f	0.0247927
114	0xbd9aa5a6	-0.07551126
115	0xbd9a9566	-0.07548027
116	0xbb7bc88c	-0.0038419096
117	0xbdc6605d	-0.096863486
118	0xbd252b61	-0.040324572
119	0x3d4ec311	0.050479
120	0x3c81887b	0.01581215
121	0xbd0531f3	-0.03251834
122	0xbdd23e4c	-0.102657884
123	0xbcba2c0e	-0.022726085
124	0x3d7f55a0	0.062337518
125	0x3ce05087	0.027382148
126	0xbd9eb3bf	-0.077491276
127	0xbd6e4ac0	-0.058176756
128	0x3d220e82	0.039564617
129	0xbd9b4bd6	-0.07582824
130	0x3d366fa3	0.04454006
131	0xbdddad1b	-0.10824033
132	0x3ce0bdeb	0.02743431
133	0xbd99671d	-0.074903704
134	0x3da13dc3	0.07873108
135	0x3c9c1f27	0.019057823
136	0xbd645ff6	-0.055755578
137	0xbdc68473	-0.096932314
138	0x3c3c9216	0.011509439
139	0xbda36496	-0.079781696
140	0xbd24cd9e	-0.040235154
141	0x3be1894b	0.0068828217
142	0x3d58f2cf	0.052965935
143	0x3d1037e3	0.035209548
144	0xbcbb4db0	-0.022864193
145	0xbda40bcf	-0.08010065
146	0x3d16ea0e	0.036844306
147	0x3c001e93	0.007819789
148	0x3d4f2049	0.0505679
149	0x3ce148a8	0.027500466
150	0xbd29658a	-0.0413566
151	0xbdb3252d	-0.08747325
152	0xbd149f33	-0.036284637
153	0x3d8b5dce	0.06805001
154	0xbd0eb6d3	-0.034842324
155	0xbcc977c8	-0.024593249
156	0x3caaff19	0.020873593
157	0xbc0b6d57	-0.008509955
158	0xbc8e334c	-0.017358445
159	0x3c5478a9	0.012968221
160	0x3d174141	0.036927465
161	0xbd09089b	-0.033455472
162	0xbdded21e	-0.108799204
163	0xbb6429ec	-0.0034815026
164	0x3d5a53bb	0.053302508
165	0xbd663bb9	-0.0562093
166	0x3d6aac6a	0.057293333
167	0xbcee8bf8	-0.029119477
168	0x3ccf43e8	0.025300935
169	0xbdcdb95f	-0.10045122
170	0xbdb8180a	-0.0898896
171	0x3d55b136	0.052170955
172	0x3ced9cfc	0.02900552
173	0xbb2eb19e	-0.002665616
174	0xbced9d2e	-0.029005613
175	0xbd4c13bd	-0.04982351
176	0x3d5edde7	0.05441084
177	0xbd713bb8	-0.058894843
178	0xbd7e2833	-0.062050056
179	0x3d01b492	0.031666346
180	0xbd78a790	-0.060706675
181	0xbcbecf1e	-0.02329212
182	0x3dad702a	0.08468659
183	0x3c9866dd	0.018603737
184	0xbca37b79	-0.019956337
185	0x3cac3492	0.021021161
186	0x3d32829e	0.043581598
187	0xbcb75495	-0.022379199
188	0x3cbe34c1	0.023218514
189	0x3d02ecee	0.031964235
190	0x3cd87b99	0.026426123
191	0xbdbcc852	-0.092178956
192	0xbb3a5c34	-0.0028436305
193	0xbd161163	-0.036637675
194	0x3c9da285	0.019242534
195	0x3d863096	0.06552236
196	0xbd875f6c	-0.06609997
197	0x3d21d0c2	0.039505728
198	0x3d911dd1	0.07085765
199	0xbcc8ddf3	-0.024519896
200	0x3b59f92e	0.0033260095
201	0xbd1c783a	-0.038200594
202	0xbdc6f215	-0.09714142
203	0xbcb2497a	-0.021763552
204	0x3d1b74d1	0.0379532
205	0xbcb61271	-0.02222559
206	0xbda09de2	-0.07842614
207	0xbde60dbb	-0.11233088
208	0xbd1b565a	-0.03792415
209	0xbd387744	-0.045035616
210	0xbda6abf1	-0.08138264
211	0xbd2ecbe2	-0.042674907
212	0xbc9b470f	-0.018954782
213	0x3cb6bf7e	0.022308107
214	0xbd8438c5	-0.064561404
215	0xbd22d811	-0.03975684
216	0xbbb4a603	-0.005512954
217	0xbb57bda9	-0.0032919443
218	0xbda8c85b	-0.0824134
219	0xbd89dbec	-0.067314
220	0xb71cbd91	-9.342461e-06
221	0xbd9a2d0d	-0.07528124
222	0xbd9acca6	-0.07558565
223	0xbd9666d6	-0.07343833
224	0xbccb5cda	-0.024824549
225	0xbcbdecee	-0.023184266
226	0xbd8a464d	-0.0675169
227	0xbd81f3ec	-0.063453525
228	0xbd8109b4	-0.06300679
229	0xbd0a7be9	-0.033809576
230	0x3cc747aa	0.024326164
231	0xbc36f8ce	-0.011167718
232	0xbdad08b3	-0.08448925
233	0xbc774f1d	-0.015094546
234	0xbddfbb09	-0.10924346
235	0x3ccdf1d8	0.025139734
236	0xbdd2325b	-0.10263511
237	0x3d2d0867	0.04224434
238	0xbdbe3908	-0.092882216
239	0xbdcd8ec9	-0.10037
240	0xbdd701f9	-0.10498423
241	0xbdcde65a	-0.10053702
242	0xbd5b8e0f	-0.053602275
243	0xbc3f577d	-0.011678574
244	0xbc0c4629	-0.008561649
245	0x3c56d56b	0.013112406
246	0xbd051318	-0.032488912
247	0x3d038972	0.0321135
248	0xbd2d1af6	-0.04226204
249	0x3c90c54c	0.017672203
250	0x3b3e8c62	0.0029075374
251	0x3d539a43	0.051660787
252	0xbc8a715d	-0.016899759
253	0xbdb64fd4	-0.08901945
254	0x3c861e72	0.01637194
255	0xbcf2c586	-0.029635202

bias f4 [128]
0	0x3d4d128a	0.05006651
1	0x3d49315c	0.04911934
2	0x3bc1cf4f	0.0059146057
3	0xbcc17278	-0.023614153
4	0xbd25219c	-0.040315256
5	0xbd2fbcee	-0.042904787
6	0x3e0a0a06	0.13480386
7	0x3d6f2c89	0.05839208
8	0xbceba834	-0.028766729
9	0xbd951997	-0.072802715
10	0xbdce0785	-0.10060028
11	0x3c5ac027	0.013351477
12	0x3e122f1c	0.14275783
13	0xbce56d2d	-0.02800616
14	0x3cb314de	0.021860536
15	0xbcf7d292	-0.030251775
16	0xbdb35948	-0.087572634
17	0xbd150f05	-0.036391277
18	0xbd5b04a7	-0.053471234
19	0x3e1b727c	0.15180391
20	0x3e0ecbe6	0.13944969
21	0x3d738512	0.059453078
22	0x3e01c9fc	0.12674707
23	0x3dd460f4	0.10370055
24	0xbb1b0f6f	-0.0023660322
25	0x3c8f3de6	0.01748557
26	0xba941504	-0.0011297767
27	0x3dd9ae49	0.106289454
28	0x3d3c7e82	0.046019085
29	0x3daf8d46	0.08571868
30	0x3d0f9f0e	0.035063796
31	0xbcd1759d	-0.025568778
32	0xbd8601af	-0.0654329
33	0x3de0f4c9	0.10984189
34	0x3e364740	0.17800617
35	0xbd26a3a5	-0.040683407
36	0xbd7eb5d4	-0.062185124
37	0x3d3200f4	0.04345794
38	0xb996719a	-0.0002869487
39	0x3e2c1cb8	0.1680783
40	0x3d99784c	0.07493648
41	0x3cc62ff4	0.024192788
42	0xbd4c287b	-0.049843293
43	0x3cf9be0c	0.03048613
44	0x3e0c4c19	0.13700904
45	0xbdcf348d	-0.10117445
46	0x3e142555	0.14467366
47	0x3d6613a8	0.05617109
48	0x3db5035f	0.088385336
49	0x3d14b3d6	0.036304317
50	0xbd7fb737	-0.062430587
51	0x3dbc547f	0.09195804
52	0x3de5190b	0.11186417
53	0xbd0535fe	-0.032522194
54	0x3d60aa8d	0.05485015
55	0x3cf78271	0.030213566
56	0x3d000a31	0.03125972
57	0x3d6043eb	0.05475227
58	0xbdb07788	-0.08616549
59	0xbd8bcba3	-0.0682595
60	0x3e15f17c	0.146429
61	0x3e2b0b85	0.16703613
62	0x3d594787	0.05304673
63	0x3c475bc2	0.012167873
64	0xbd278276	-0.0408959
65	0x3d42907a	0.047501065
66	0xbccd8e5f	-0.025092302
67	0x3e23588d	0.15951748
68	0xbb891785	-0.004183712
69	0x3d8ef1e3	0.0697973
70	0xbd8eaeab	-0.06966909
71	0xbd79160b	-0.060812037
72	0x3e0677ee	0.13131687
73	0x3dd1af33	0.10238495
74	0x3d96a794	0.07356182
75	0x3cf607dd	0.030033046
76	0xbb862243	-0.00409344
77	0xbd04a130	-0.032380283
78	0xbcac79b1	-0.02105412
79	0x3e249147	0.16071044
80	0xbd1e4c9f	-0.03864729
81	0x3e0f2a55	0.13980992
82	0x3e01f271	0.1269014
83	0xbcfce4f7	-0.030870898
84	0x3ce64275	0.028107861
85	0x3dce9856	0.100876495
86	0x3d5a68b1	0.053322498
87	0x3e05ae63	0.13054805
88	0xb801a927	-3.0913532e-05
89	0x3d49940c	0.049213454
90	0xbdc4b204	-0.09604266
91	0xbbb2f013	-0.005460748
92	0x3e003932	0.12521818
93	0x3d6c6b74	0.057719663
94	0x3bbe7523	0.0058123036
95	0x3e2bd964	0.16782147
96	0x3e0da4b8	0.13832366
97	0xbdd86548	-0.10566193
98	0x3d5de0a2	0.054169305
99	0x3e1c4c47	0.15263472
100	0x3e0d3dcb	0.13793103
101	0x3ddf50f2	0.10904111
102	0x3e1a550d	0.15071507
103	0xbb300925	-0.002686092
104	0x3da2d179	0.0795011
105	0x3db34594	0.08753505
106	0x3d916822	0.0709994
107	0xbc5adc3f	-0.013358175
108	0x3db0dccc	0.08635864
109	0x3d4412af	0.04786938
110	0x3d083d77	0.033261742
111	0x3cb4b679	0.022059666
112	0xbcc742ea	-0.0243239
113	0x3e25d234	0.16193467
114	0xbcea73b7	-0.02861963
115	0xbd7c413a	-0.061585642
116	0x3bd88517	0.0066076624
117	0x3cb11b9b	0.021619609
118	0xbdae2811	-0.08503736
119	0xbbfebe27	-0.007774133
120	0x3e09027a	0.13379851
121	0x3d026dd2	0.031843014
122	0x3d917274	0.07101908
123	0xbd7b5f69	-0.061370287
124	0x3c679e37	0.014136842
125	0x3db30136	0.08740465
126	0x3c09cff0	0.008411393
127	0xbbf4fdc3	-0.00747654

weight f4 [2, 128]
0	0x3c1dcd6f	0.009631499
1	0xbcaf873f	-0.021426795
2	0x3e1f192a	0.15536943
3	0xbd834026	-0.0640872
4	0x3ce3d779	0.027812706
5	0x3d11bbcc	0.035579488
6	0xbe024ae0	-0.12723875
7	0x3ce04cf1	0.027380439
8	0xbd5e331f	-0.05424797
9	0x3c48bf17	0.012252591
10	0x3d2091f5	0.039201695
11	0xbd3eb2bb	-0.04655717
12	0x3d385fb7	0.045013156
13	0x3cb594ae	0.022165623
14	0x3ca982bc	0.020692222
15	0xbd7df27c	-0.06199883
16	0xbb58fd7c	-0.0033110073
17	0xbd0d9abd	-0.034571398
18	0xbd5d6c3e	-0.054058306
19	0x3dff6037	0.124695234
20	0x3e21f931	0.15817715
21	0x3d061112	0.032731123
22	0x3de422b5	0.11139432
23	0x3e156e98	0.1459297
24	0x3da063c5	0.078315295
25	0x3bfbd29c	0.0076850187
26	0xbb5a357d	-0.0033296042
27	0x3d38c915	0.04511364
28	0x3e2a5931	0.16635586
29	0x3e32c9aa	0.17459741
30	0x3e2c8467	0.16847382
31	0x3d844ddc	0.06460163
32	0xbc37cafa	-0.011217827
33	0xbd801118	-0.062532604
34	0x3dde552d	0.1085609
35	0xbd2db82b	-0.042411964
36	0xbcb5d415	-0.022195855
37	0xbbfc2c81	-0.007695735
38	0x3c81d3f7	0.015848143
39	0x3e133f26	0.14379558
40	0x3e19c805	0.15017708
41	0xbe53b109	-0.20673002
42	0x3ce01de0	0.027357996
43	0x3d0ff463	0.035145175
44	0x3e2a84aa	0.1665217
45	0x3bd17ae2	0.0063928226
46	0x3e19b868	0.15011752
47	0x3e1f9876	0.15585503
48	0x3dd6a7ff	0.104812615
49	0xbd00cae7	-0.031443503
50	0x3d094aa0	0.033518434
51	0x3dde2f8c	0.108489126
52	0x3e13dd81	0.14439966
53	0xbd793839	-0.060844634
54	0xbd32f7f0	-0.043693483
55	0x3c5db65b	0.013532246
56	0x3e7cb24d	0.24677391
57	0xbd438e87	-0.047743347
58	0x3e644160	0.22290564
59	0x3d8d00a7	0.0688489
60	0x3e121fdc	0.14269966
61	0x3e3bd4ac	0.18342847
62	0x3ccf632f	0.02531585
63	0x3d702bde	0.058635585
64	0xbd833d44	-0.0640817
65	0x3d15d3ba	0.03657887
66	0x3dab034c	0.08350238
67	0x3e2f77ab	0.17135493
68	0x3e3e44e8	0.18580973
69	0x3e3b28d9	0.18277301
70	0xbcd33edd	-0.025786811
71	0xbd5f70fb	-0.054551106
72	0x3dddb2ea	0.10825141
73	0xbe33a9d2	-0.1754525
74	0x3e39f12c	0.18158406
75	0x3d0d65e2	0.03452099
76	0x3d7df8b1	0.06200475
77	0xbd778f1a	-0.060439207
78	0x3d93ad0d	0.07210741
79	0x3e3c9a6f	0.18418287
80	0xbd5f4067	-0.05450478
81	0x3db8894b	0.090105616
82	0x3e37c470	0.17946029
83	0x3ca6cca6	0.020361256
84	0xbd5bd24f	-0.053667363
85	0xbe6922a9	-0.22767128
86	0x3d2ce648	0.0422118
87	0x3de37777	0.111067705
88	0xbca460ca	-0.020065684
89	0x3d863acb	0.065541826
90	0x3b8bc20a	0.0042650746
91	0xbe339ab5	-0.17539485
92	0x3dddc19c	0.10827944
93	0x3e39eb93	0.1815627
94	0xbd445166	-0.04792919
95	0x3df91345	0.121618785
96	0x3e293e90	0.16527772
97	0xbe0b9a6a	-0.13633123
98	0x3d9f637b	0.07782646
99	0x3dc35504	0.095377
100	0x3de87104	0.11349681
101	0x3e2bcbbe	0.1677694
102	0x3e52d9c8	0.2059089
103	0xbd8aef13	-0.06783881
104	0x3e210a6e	0.15726635
105	0x3dc387ee	0.09547411
106	0xbd7483d0	-0.05969602
107	0x3ca988a7	0.020695044
108	0x3e4332e7	0.19062386
109	0x3df7bc1f	0.12096428
110	0x3db46aa7	0.08809405
111	0x3e04eb84	0.12980467
112	0xbd1ae25c	-0.03781353
113	0x3e08192e	0.13290855
114	0xbc248a07	-0.010042674
115	0x3d1951a8	0.03743139
116	0x3e405c77	0.18785273
117	0xbce88089	-0.028381603
118	0xbd2a24bb	-0.041538935
119	0xbd46aa97	-0.04850253
120	0x3e4422cc	0.19153899
121	0x3e85bf63	0.2612258
122	0x3de71df9	0.11285014
123	0x3d6d5ea0	0.05795157
124	0xbd77c422	-0.06048978
125	0x3e17465e	0.14772937
126	0x3c9f513c	0.019447915
127	0x3d86223c	0.065494984
128	0x3c334fec	0.010944348
129	0xbd1d2648	-0.038366586
130	0x3e29a2a5	0.1656595
131	0x3d650375	0.0559115
132	0x3bfd8cf9	0.0077377525
133	0x3b926646	0.0044677584
134	0xbe669dc8	-0.22521126
135	0xbd0d236c	-0.03445761
136	0x3d6ec189	0.05829004
137	0xbd14b524	-0.03630556
138	0x3d5e23e4	0.054233447
139	0x3cb839ac	0.022488438
140	0x3e3feb8d	0.18742199
141	0xbcd8ddc1	-0.026472928
142	0xbd02fb70	-0.03197807
143	0x3d81365c	0.06309196
144	0xbd5ff8fa	-0.054680802
145	0x3cf21205	0.029549608
146	0x3d8ade61	0.06780697
147	0x3e040f5d	0.12896486
148	0x3dc939b0	0.09825456
149	0xba59218a	-0.0008282891
150	0x3e3396d3	0.17538004
151	0x3db8ee5f	0.09029841
152	0x3e0edafd	0.13950725
153	0xbcc3ebf6	-0.023916226
154	0xbcc27ed0	-0.02374211
155	0x3e2373ef	0.15962194
156	0x3e24656e	0.16054317
157	0x3dbdafdf	0.092620604
158	0x3dcffb01	0.10155297
159	0x3d559b10	0.052149832
160	0x3d398715	0.04529484
161	0x3e190df9	0.14946736
162	0x3e247384	0.1605969
163	0xbd1d1096	-0.038345896
164	0xbb25c392	-0.002529357
165	0xbd1d6f4c	-0.03843622
166	0xbeab4947	-0.33454344
167	0x3dd786ae	0.10523735
168	0x3e1f2e0e	0.15544912
169	0xbe0af970	-0.13571715
170	0xbd80e2f1	-0.06293286
171	0xbd15ed5f	-0.036603328
172	0x3da55c30	0.08074224
173	0xbd0ea826	-0.034828328
174	0x3e2797bf	0.1636648
175	0x3dfdccc8	0.123925745
176	0x3e1fee3f	0.15618227
177	0x3ca39446	0.019968163
178	0xbbff6981	-0.0077945595
179	0x3e0eff06	0.13964471
180	0x3dffb492	0.12485613
181	0xbd4424a3	-0.047886502
182	0x3dafdc96	0.08586995
183	0x3ada3c19	0.001664999
184	0xbe0db1ed	-0.13837405
185	0xbd0f7a96	-0.035029016
186	0xbd2eb19d	-0.042649854
187	0xbd8179de	-0.063220724
188	0x3e0e2465	0.13881071
189	0x3da675af	0.08127915
190	0xbd00896e	-0.031381063
191	0xbd9a7afa	-0.07542987
192	0xbc48a858	-0.0122471675
193	0x3d8a9e28	0.06768447
194	0xbd5199a6	-0.05117192
195	0x3e0f44ff	0.13991164
196	0x3df7ac7c	0.12093446
197	0x3e303c0a	0.17210403
198	0xbd83d495	-0.06437031
199	0x3b881230	0.0041525587
200	0x3e38a097	0.1803001
201	0x3e040950	0.12894177
202	0x3d890dd9	0.06692094
203	0x3baebfc5	0.0053329193
204	0x3e2be080	0.16784859
205	0xbd05c971	-0.032662813
206	0x3d18b28d	0.037279654
207	0x3e2721b2	0.16321447
208	0xbd1113a3	-0.035419118
209	0x3e1aaa22	0.15103963
210	0x3e35e8dc	0.1776461
211	0xb9c73f36	-0.00038003334
212	0xbda66803	-0.081253074
213	0x3d14cfc3	0.03633095
214	0xbd0e8c55	-0.0348018
215	0x3ddf41c2	0.10901214
216	0xbcc8be4f	-0.024504809
217	0x3c3186f3	0.010835397
218	0xbd480c60	-0.048839927
219	0x3c4b5960	0.012411445
220	0x3e4b9192	0.1987975
221	0x3e5c1a99	0.21494521
222	0xbd2c6b2f	-0.042094406
223	0x3e3bf548	0.18355286
224	0x3e416cdd	0.18889184
225	0xbe386e25	-0.18010767
226	0x3c73f645	0.014890258
227	0x3e061010	0.13092065
228	0x3e24fde3	0.16112475
229	0x3e13c304	0.14429861
230	0x3e3132bf	0.17304514
231	0xbce5ff30	-0.028075784
232	0x3e2dc2c1	0.16968824
233	0x3e1b9251	0.15192534
234	0xbe4b967d	-0.19881625
235	0xbd63382f	-0.055473503
236	0x3d6b8a0e	0.057504706
237	0x3e3448b3	0.17605858
238	0x3e25530d	0.16144963
239	0xbe82eb6f	-0.25570247
240	0x3c8c6782	0.0171392
241	0x3e422a39	0.18961419
242	0x3cb63393	0.02224139
243	0x3b627a22	0.003455766
244	0x3d86488c	0.06556806
245	0x3d897f44	0.06713727
246	0x3dba0de2	0.09084679
247	0xbcb32ee4	-0.021872945
248	0x3d8a875a	0.067640975
249	0x3e719331	0.23591305
250	0x3df1fbae	0.11815582
251	0xbd3febb9	-0.046855662
252	0xbd231909	-0.039818797
253	0x3e1b665a	0.15175763
254	0xbd51a3a5	-0.051181454
255	0xbd62de8a	-0.05538801

bias f4 [2]
0	0x3df7aab0	0.12093103
1	0x3dc9b3f5	0.09848777
