naive_q_network.pth (torch, 72855 bytes, 6 tensors)

weight f4 [128, 4]
0	0xbd59e7cc	-0.053199574
1	0xbe16425a	-0.14673749
2	0x3ef9a709	0.4876025
3	0x3f1c1f3f	0.6098518
4	0x3df5f8dc	0.12010357
5	0xbf18594a	-0.59511244
6	0xbeb5da21	-0.35517982
7	0x3e51cdaa	0.20488611
8	0x3dc46745	0.095900096
9	0x3e464299	0.19361342
10	0xbea0460d	-0.31303445
11	0xbe8ba81f	-0.27276704
12	0xbf0a3a0a	-0.5399481
13	0xbe21a1f0	-0.1578443
14	0xbe419884	-0.18905836
15	0x3eeb66bd	0.4597682
16	0xbed7b6ba	-0.42131597
17	0x3ee84e5a	0.45372277
18	0x3d7682d1	0.06018335
19	0x3d826ccd	0.06368408
20	0xbe9f3308	-0.3109362
21	0xbe5b31a6	-0.21405658
22	0x3dd296fb	0.102827035
23	0xbdb38c40	-0.08766985
24	0x3cda99e7	0.026684714
25	0xbe11b623	-0.14229636
26	0x3e5883e2	0.2114406
27	0x3ef9cad0	0.48787546
28	0x3dffd5e1	0.12491966
29	0xbeda2e1c	-0.42613304
30	0xbdf02335	-0.11725465
31	0xbe8791a2	-0.26478297
32	0x3d252186	0.040315174
33	0xbf1da16d	-0.6157444
34	0x3e8f370e	0.2797169
35	0x3e510a6c	0.20414132
36	0xbed30fed	-0.41223088
37	0x3e4e524a	0.20148578
38	0x3f138f25	0.57640296
39	0x3e9dd296	0.30824727
40	0xbf032593	-0.5122921
41	0xbec1d828	-0.37860227
42	0x3eb80f8b	0.35949358
43	0x3d8381e4	0.06421259
44	0x3de5a6e4	0.112134725
45	0x3cbb4dbe	0.022864219
46	0x3ea347db	0.3189076
47	0xbec7e8b7	-0.39044735
48	0x3dde98ff	0.108690254
49	0xbe2acc9c	-0.16679615
50	0xbe033327	-0.12812482
51	0x3ee5767d	0.44816962
52	0xbedc9500	-0.43082428
53	0x3e78decd	0.24303742
54	0x3ec6e089	0.38843182
55	0xbed4dd87	-0.41575262
56	0xbe4486a8	-0.19191992
57	0x3d45087b	0.04810379
58	0x3e04a633	0.12954025
59	0x3eccdfbc	0.40014446
60	0xbeb19f7d	-0.34691992
61	0x3e2ee9d6	0.17081389
62	0x3edbb3c4	0.42910588
63	0x3d06f071	0.032944147
64	0x3ebfcadb	0.37459454
65	0xbf1c5cc1	-0.6107903
66	0x3d08e6cd	0.033423234
67	0x3ee84472	0.4536472
68	0x3e54c36f	0.20777677
69	0x3da81e3c	0.08208892
70	0xbee1d8ad	-0.44110623
71	0x3da90609	0.08253104
72	0xbecc21ed	-0.39869633
73	0x3c062389	0.008187183
74	0x3f192f9e	0.59838283
75	0x3ee3ad8b	0.4446834
76	0xbf062168	-0.52394724
77	0x3e34437d	0.1760387
78	0xbe0cf487	-0.13765155
79	0x3edf67c3	0.4363385
80	0x3c7b75be	0.015347896
81	0xbe27df1d	-0.16393705
82	0xbe8279b2	-0.2548347
83	0x3f19178a	0.5980154
84	0x3e936de9	0.28794792
85	0xbee90004	-0.45507824
86	0x3f022de1	0.50851256
87	0x3f0c297f	0.5475082
88	0x3efd9321	0.49526313
89	0x3edec9bd	0.4351329
90	0x3e698aec	0.228069
91	0xbd31bef7	-0.04339501
92	0xbe9d4762	-0.30718523
93	0x3ebdef45	0.3709661
94	0x3eb6481b	0.35601887
95	0xbd1949fc	-0.037424073
96	0x3ed76b90	0.4207425
97	0x3ed68675	0.41899458
98	0xbe5aaec1	-0.21355726
99	0xbeb01fc4	-0.34399235
100	0xbed0d744	-0.40789235
101	0x3decf2de	0.11569761
102	0x3f00600d	0.5014656
103	0xbe92e360	-0.28689098
104	0xbd806822	-0.06269862
105	0x3e5f0f5a	0.217832
106	0xbde380bd	-0.11108539
107	0x3e8800c3	0.2656308
108	0xbd341cb5	-0.04397269
109	0xbe3b6d9e	-0.18303534
110	0x3ebcb8ab	0.3685964
111	0xbe6fff18	-0.23437154
112	0xbe6ff52f	-0.23433374
113	0xbf1afdbe	-0.6054343
114	0x3e8bc612	0.27299553
115	0x3d82ce0b	0.06386956
116	0xbebbc898	-0.36676478
117	0xbed19833	-0.4093643
118	0xbdb9a940	-0.09065485
119	0xbea40224	-0.32032883
120	0xbf29bb20	-0.66301155
121	0xbc6d1f89	-0.014472851
122	0x3e68f5a2	0.22749951
123	0xbdbca89d	-0.09211848
124	0x3e245e14	0.16051513
125	0xbecbdabc	-0.3981532
126	0xbdf470ad	-0.11935554
127	0x3f164a06	0.587067
128	0xbece778c	-0.40325582
129	0xbe91e8cd	-0.28497925
130	0x3e8bb3ba	0.27285558
131	0xbe3f95e1	-0.18709518
132	0x3ec08492	0.37601143
133	0xbea38a09	-0.3194125
134	0xbde547d6	-0.11195342
135	0xbeca6539	-0.39530352
136	0xbef552dc	-0.4791478
137	0x3e5239d1	0.20529868
138	0x3eee26c5	0.46513954
139	0x3f10bcf8	0.56538343
140	0x3c88e3e2	0.016710225
141	0x3e0e75d0	0.1391213
142	0xbedfae99	-0.43687895
143	0xbe9eb558	-0.3099773
144	0x3e91c29d	0.2846879
145	0xbbbdc01d	-0.005790724
146	0xbe90262b	-0.2815412
147	0x3f080231	0.53128344
148	0x3dfe9b34	0.124319464
149	0xbf0e8088	-0.55664873
150	0xbe57e036	-0.21081623
151	0x3eca5457	0.3951747
152	0xbe4fc50c	-0.20290011
153	0x3e8034ce	0.25040287
154	0x3e829ab4	0.25508654
155	0x3ed90a70	0.42390776
156	0x3e1abf87	0.15112124
157	0xbf0b448f	-0.5440149
158	0x3dc34482	0.09534551
159	0xbe1be08f	-0.15222381
160	0xbf1181ec	-0.5683887
161	0xbe77e1d4	-0.2420724
162	0x3ef1767e	0.47160715
163	0x3f0715a9	0.52767426
164	0xbc71609a	-0.014732504
165	0x3f002b8f	0.50066465
166	0xbd86ce23	-0.06582286
167	0xbf0183d3	-0.5059177
168	0x3bdc34b9	0.006720152
169	0x3ec600b2	0.38672405
170	0x3e2c7180	0.16840172
171	0x3dcbed17	0.09957331
172	0xbef051e2	-0.46937472
173	0xbd779165	-0.060441393
174	0xbdb67f7e	-0.08911036
175	0x3e6a155e	0.22859713
176	0x3e15e805	0.1463929
177	0x3ee6641d	0.44998255
178	0xbe2164cc	-0.15761107
179	0xbe0e0680	-0.13869667
180	0xbe9d6547	-0.3074133
181	0xbdd07fd5	-0.10180632
182	0x3d6159a4	0.05501713
183	0xbeab4eca	-0.3345855
184	0xbc022712	-0.007943885
185	0xbea09256	-0.31361645
186	0xbe5303e6	-0.20606956
187	0xbe658e8b	-0.22417657
188	0xbf086741	-0.5328255
189	0xbf23bda4	-0.63961244
190	0xbe9b3eea	-0.30321437
191	0x3eaeb1e0	0.34120083
192	0xbef42665	-0.47685543
193	0x3eb2ba7c	0.349079
194	0x3d175b06	0.03695204
195	0xbe3a16a7	-0.18172704
196	0xbe836495	-0.25662675
197	0xbe77abfa	-0.24186698
198	0xbe156d3b	-0.1459245
199	0x3dabca2a	0.08388169
200	0xbeed71a0	-0.46375751
201	0x3dbaa6e4	0.09113863
202	0x3eb4dbc3	0.35323915
203	0xbebcd178	-0.36878562
204	0x3d701372	0.058612294
205	0xbecffb02	-0.4062119
206	0x3df5bf12	0.119993344
207	0xbe78b28c	-0.2428686
208	0xbf0baa9c	-0.54557204
209	0xbd802d6d	-0.06258664
210	0xbe53c56c	-0.20680779
211	0xbcf811cf	-0.03028193
212	0x3c293ebf	0.010329901
213	0x3e9af73e	0.30266756
214	0x3efbf476	0.49209946
215	0x3e8daaeb	0.27669463
216	0xbd79d573	-0.060994577
217	0x3e95ba07	0.2924349
218	0xbe045714	-0.12923843
219	0xbd406bcb	-0.0469778
220	0xbb5a85d9	-0.003334394
221	0xbec5339c	-0.38515937
222	0x3f1574d4	0.5838139
223	0x3edb8b88	0.4287989
224	0xbdddfee1	-0.1083963
225	0x3e9673d3	0.29385242
226	0xbeaf229f	-0.342061
227	0x3e9f6110	0.3112874
228	0x3e6ba59d	0.23012395
229	0xbf1c69c3	-0.6109888
230	0x3ec44f89	0.3834193
231	0x3f0fab27	0.5612053
232	0x3e91568e	0.28386348
233	0xbdd2adaf	-0.10287034
234	0x3c150bed	0.009097082
235	0xbe6166f6	-0.22011933
236	0xbf12cb13	-0.57341117
237	0xbec2bb13	-0.3803335
238	0xbeafa397	-0.34304497
239	0x3f1895cd	0.5960358
240	0xbef98d3c	-0.48740566
241	0xbd2ca9ff	-0.04215431
242	0xbe844083	-0.2583047
243	0x3dd08ced	0.101831295
244	0x3da26f75	0.07931415
245	0xbc6b7591	-0.014371292
246	0x3e979b79	0.29610804
247	0x3ef792a6	0.4835407
248	0xbef17c31	-0.47165063
249	0xbe55bd0c	-0.20872897
250	0xbec310a1	-0.38098624
251	0xbe2a7b5f	-0.16648625
252	0xbe2a2fba	-0.16619769
253	0x3ec4c802	0.38433844
254	0x3eb41d91	0.35178807
255	0x3ebe45e0	0.37162685

bias f4 [128]
0	0x3dfe8865	0.12428359
1	0x3f1af230	0.605258
2	0x3f065e49	0.5248762
3	0x3f215ba1	0.6303044
4	0xbc92f578	-0.017939314
5	0xbe867ef1	-0.26268724
6	0x3e850606	0.25981158
7	0xbe279e83	-0.16369061
8	0xbe721c8c	-0.23643702
9	0x3f2fac7f	0.68622583
10	0x3eec1b3a	0.46114522
11	0xbd981a37	-0.07426875
12	0x3f233621	0.6375447
13	0xbea072eb	-0.31337675
14	0x3ee48609	0.4463351
15	0xbe74c7ff	-0.23904417
16	0x3ec44f4c	0.3834175
17	0xbd430c1f	-0.04761898
18	0x3ecb44ec	0.3970102
19	0xbe5c1855	-0.21493657
20	0xbe723bae	-0.23655578
21	0x3da8ec0e	0.08248149
22	0xbe287aa6	-0.16453037
23	0xbe2fd67e	-0.17171666
24	0x3e75a516	0.23988757
25	0xbe2d183a	-0.16903773
26	0x3ee21185	0.4415399
27	0x3f1a79d5	0.6034215
28	0x3ee9d55d	0.45670596
29	0x3e724686	0.23659715
30	0x3f34ff62	0.70702183
31	0xbcd81e3f	-0.02638161
32	0x3f3e46ac	0.74326587
33	0xbdfd2eba	-0.12362428
34	0xbeae19c0	-0.3400402
35	0xbed0144a	-0.4064048
36	0x3efc2fc2	0.49255186
37	0x3f1e385f	0.61804765
38	0x3ed98943	0.42487535
39	0x3f3f7492	0.7478725
40	0xbe4ace24	-0.19805199
41	0x3d3f1cd1	0.04665834
42	0xbecb489f	-0.39703843
43	0x3f1a7cd1	0.60346705
44	0xbec03668	-0.3754151
45	0xbec8f7f6	-0.3925168
46	0x3e9b7fc4	0.30370915
47	0x3f14a2bd	0.5806082
48	0xbeb5997a	-0.35468656
49	0xbd91b410	-0.07114422
50	0xbee39334	-0.44448245
51	0xbe8f725f	-0.28016946
52	0x3f1226d4	0.57090497
53	0xbd8173d8	-0.063209236
54	0x3f423a7b	0.75870484
55	0x3ecfcd7e	0.40586466
56	0x3ef5d7da	0.48016244
57	0x3f33b6a7	0.7020058
58	0xbebf59e7	-0.37373278
59	0x3f23026e	0.6367558
60	0xbef1481b	-0.47125325
61	0xbea3d3f1	-0.31997636
62	0xbea681bc	-0.32520854
63	0xbed4ce38	-0.41563582
64	0x3e2f01b8	0.170905
65	0xbe1fcd06	-0.15605554
66	0xbe55385c	-0.2082228
67	0x3eb349c0	0.35017204
68	0x3e71bc05	0.2360688
69	0x3eb0fe74	0.34569132
70	0x3f316958	0.69301367
71	0x3f1182f5	0.5684045
72	0xbce387a3	-0.027774638
73	0xbed6872f	-0.41900012
74	0x3e9fe51a	0.31229478
75	0xbe9fb662	-0.31193835
76	0xbeb1d862	-0.347354
77	0x3eb3e3cd	0.35134736
78	0x3c6cec6e	0.014460666
79	0xbed25d50	-0.41086817
80	0x3ef9782d	0.487245
81	0x3f205d74	0.626426
82	0xbdb53648	-0.08848244
83	0x3ed81424	0.42202866
84	0xbeada926	-0.33918113
85	0xbe9f31e7	-0.3109276
86	0xbd000cb5	-0.03126212
87	0x3e35b7a4	0.17745835
88	0x3ef7b8da	0.48383218
89	0x3eebcb54	0.46053565
90	0xbec5122f	-0.38490435
91	0x3e917031	0.28405908
92	0x3f2e8d3c	0.68184257
93	0x3f15be06	0.5849308
94	0xbe026a80	-0.12735939
95	0x3e593689	0.2121221
96	0xbd47fe7d	-0.048826683
97	0x3ebfb4e4	0.37442696
98	0xbe8a81e3	-0.2705222
99	0xbe778293	-0.24170904
100	0x3e3072ac	0.17231244
101	0x3f2771f7	0.6540827
102	0xbc1e77d4	-0.009672124
103	0xbeeb8878	-0.46002555
104	0xbe95f155	-0.29285684
105	0x3ed584c5	0.41702858
106	0xbed3a896	-0.41339558
107	0xbcee5636	-0.029093843
108	0xbeb4c046	-0.35302943
109	0x3f29df48	0.66356325
110	0x3e3f9984	0.18710905
111	0xbe97dd6b	-0.29661116
112	0xbec0b913	-0.376412
113	0xbeea4ed5	-0.4576327
114	0xbe31d651	-0.17366911
115	0xbdd25f5e	-0.10272096
116	0x3e2ddd93	0.16979055
117	0xbefea892	-0.49737984
118	0x3f2d79fa	0.67764246
119	0x3f3d78fc	0.7401273
120	0xbe1dfc29	-0.15428223
121	0x3f42b153	0.76051825
122	0x3f3042bc	0.6885183
123	0x3f0f458d	0.559655
124	0x3f00ace0	0.50263786
125	0x3e38ca61	0.18045951
126	0x3f3fb5be	0.7488669
127	0xbef63c22	-0.48092753

weight f4 [128, 128]
0	0x3ce5a5d8	0.028033182
1	0xbd8ab83a	-0.0677342
2	0xbd968344	-0.07349256
3	0xbdc95a08	-0.09831625
4	0xbd30f202	-0.043199547
5	0x3d150ff6	0.036392175
6	0xbd403da2	-0.046933778
7	0xbb53876d	-0.0032276765
8	0x3d8502a9	0.06494648
9	0xbcd383b5	-0.025819639
10	0xbd90559d	-0.070475794
11	0x3dad401f	0.08459496
12	0xbd7888cd	-0.06067734
13	0xbc9f4182	-0.019440416
14	0xbd92a391	-0.07160104
15	0xbbc7183c	-0.006075887
16	0xbb559dad	-0.0032595203
17	0x3d7de5cb	0.061986726
18	0x3d2af324	0.041735783
19	0xbd576180	-0.052583218
20	0x3d39c613	0.045354914
21	0x3d6536e9	0.05596057
22	0x3d0f2db1	0.034955684
23	0x3d9d2bcc	0.07674369
24	0xbd215790	-0.039390147
25	0xbd424b35	-0.047435004
26	0xbd911f86	-0.07086091
27	0xbd70c188	-0.058778316
28	0xbd3b27d7	-0.04569229
29	0x3c91cf8d	0.017799163
30	0xbbc3c6d4	-0.00597463
31	0xbc8a16ab	-0.016856512
32	0x3d0ae72d	0.033911873
33	0x3d7f374f	0.062308606
34	0xbda00f41	-0.078154095
35	0x3d213b71	0.03936333
36	0xbd8619f7	-0.06547921
37	0xbd01de39	-0.03170607
38	0xbc15b97e	-0.009138463
39	0x3c50bfbd	0.0127410265
40	0xbd949a36	-0.07255976
41	0x3d056244	0.032564417
42	0xbd0ee889	-0.03488973
43	0xbd2a236f	-0.0415377
44	0x3d91a6ce	0.071118936
45	0xbcb9de38	-0.02268897
46	0x3d7173ad	0.058948208
47	0x3d121562	0.035664923
48	0x3d8d81e5	0.06909541
49	0x3daa2345	0.083075084
50	0x3daa4f91	0.08315957
51	0x3cbe82f9	0.023255812
52	0x3cc19812	0.023632083
53	0xbd41723a	-0.047228076
54	0xbcedbf04	-0.029021747
55	0xbc6f221f	-0.014595537
56	0xbcaeb911	-0.02132848
57	0xbd4a60a7	-0.04940858
58	0xbb413396	-0.002948021
59	0x3d4f3105	0.050583858
60	0x3ce01a9a	0.027356435
61	0x3da1ca68	0.07899934
62	0x3c499f7d	0.012306091
63	0x3cc4bf6e	0.024017062
64	0xbd19e153	-0.0375684
65	0xbd845c54	-0.06462923
66	0x3d4928a5	0.049111027
67	0x3c2f5b86	0.010702973
68	0xbb28411b	-0.0025673572
69	0xbd9faa43	-0.07796147
70	0xbc6999b7	-0.01425784
71	0x3ca40d15	0.02002577
72	0xbcce8766	-0.025211047
73	0xbd70aac4	-0.058756605
74	0xbd9b3f49	-0.0758043
75	0x3d65f055	0.0561374
76	0x3cd3221d	0.025773102
77	0xbdc77839	-0.097397275
78	0x3cac31a8	0.021019772
79	0x3d7d4f1a	0.061843015
80	0x3d6d1581	0.057881836
81	0x3c69551b	0.014241482
82	0x3d4ce2fc	0.050021157
83	0xbd9b5e36	-0.07586329
84	0x3d947ea3	0.072507165
85	0xbda0fd20	-0.0786078
86	0x3cfec777	0.031100972
87	0xbdb552bb	-0.0885367
88	0x3c47e45f	0.012200444
89	0x3c855eb1	0.016280504
90	0xbc6141d3	-0.013748604
91	0x3d213518	0.039357275
92	0xbd9a3ec2	-0.07531501
93	0x3cf6accc	0.030111693
94	0x3c349b0a	0.011023292
95	0xbd01ef3e	-0.0317223
96	0x3cd115d8	0.025523111
97	0x3d1f6498	0.038914293
98	0xb97ae1ed	-0.00023926022
99	0xbd137f25	-0.036009926
100	0xbb35a4f5	-0.002771673
101	0xbcbdd893	-0.02317456
102	0xbd56ceda	-0.052443363
103	0x3da95621	0.08268381
104	0xbb3c5450	-0.0028736778
105	0x3c94abe2	0.018148366
106	0x3d884a20	0.06654763
107	0x3c86e1c4	0.016465075
108	0xbc0ce099	-0.00859847
109	0xbdb072df	-0.0861566
110	0xbca1a846	-0.01973356
111	0x3d07ee5f	0.033186313
112	0x3d06e3dd	0.03293215
113	0xbda7abe6	-0.08187084
114	0x3c223022	0.009899171
115	0xbccd982b	-0.025096973
116	0x3d1e2c72	0.038616605
117	0xbd6012e0	-0.0547055
118	0x3b43dcf8	0.0029886346
119	0xbd3602ff	-0.04443645
120	0x3d091445	0.033466596
121	0x3d5b6116	0.053559385
122	0xbc1767b1	-0.009241031
123	0xbce2c8ef	-0.027683703
124	0xbcd991c7	-0.02655877
125	0xbcb3f6b7	-0.021968229
126	0xbd1d64bf	-0.038426157
127	0x3c9e22d8	0.019303724
128	0x3dc5fe01	0.09667588
129	0x3e5d76cc	0.21627349
130	0x3e5e125b	0.2168669
131	0x3e3c425b	0.18384688
132	0x3de98d22	0.11403872
133	0x3bd744fb	0.0065695024
134	0x3e70956a	0.23494497
135	0x3d9987d5	0.07496611
136	0x3e1a5ff0	0.1507566
137	0x3e9e3bf7	0.30905125
138	0x3e804f2c	0.25060403
139	0x3dd61979	0.10454077
140	0x3e9a1bc1	0.300993
141	0x3d946fbd	0.07247875
142	0x3e933921	0.28754523
143	0xbd8f267a	-0.06989761
144	0x3e3c4f88	0.18389714
145	0xbd999c3a	-0.07500501
146	0x3e2f7fdf	0.17138623
147	0x3e061cdc	0.13096946
148	0x3e3d703a	0.18499842
149	0x3e6267fe	0.22109982
150	0xbd7dd13b	-0.061967116
151	0xbc21c5dd	-0.009873834
152	0x3e1bdeb9	0.1522168
153	0x3d324d48	0.043530732
154	0x3e40eb62	0.18839791
155	0x3e81d8f7	0.25360844
156	0x3e3a7e61	0.18212272
157	0x3e6d782b	0.23190372
158	0x3ea6eca4	0.32602417
159	0x3d8be725	0.06831197
160	0x3e903a08	0.28169274
161	0xbd4b71d8	-0.049669117
162	0x3d81f21f	0.06345009
163	0xbd0c3cd7	-0.03423771
164	0x3e81758e	0.25285
165	0x3e2cba34	0.16867906
166	0x3e2d945a	0.16951123
167	0x3e76b096	0.240908
168	0x3e353bba	0.17698565
169	0x3d34b570	0.044118345
170	0xbd33c8ca	-0.04389266
171	0x3e2e1b17	0.17002521
172	0x3d42281d	0.047401536
173	0x3d587eae	0.052855186
174	0x3e9e3f8b	0.30907854
175	0x3e395b1e	0.18101165
176	0x3d0ce91b	0.034401994
177	0xbbb1af19	-0.0054224846
178	0x3cf61c61	0.030042829
179	0xbd9fa553	-0.07795205
180	0x3e6acea4	0.2293039
181	0xbba95b7f	-0.005168378
182	0x3e832fe7	0.25622484
183	0x3e27ff94	0.16406089
184	0x3e6b92c4	0.23005205
185	0x3e191786	0.1495038
186	0xbda4602e	-0.08026157
187	0x3e991eea	0.29906398
188	0xbc17c2bf	-0.00926274
189	0x3d82721a	0.063694194
190	0xbd95063a	-0.07276578
191	0x3d4e2708	0.05033019
192	0x3e32ed00	0.17473221
193	0x3d01b44e	0.031666093
194	0x3d3ae767	0.04563084
195	0x3e79f5fe	0.24410245
196	0x3e892d48	0.2679236
197	0x3e75e5fa	0.2401351
198	0x3eb0b20a	0.34510833
199	0x3ea234e3	0.31680974
200	0x3be4cf7c	0.006982742
201	0xbd8169ef	-0.06319033
202	0x3e265553	0.16243486
203	0xbc9e414a	-0.019318242
204	0xbca974f4	-0.02068565
205	0x3e8a661a	0.27031022
206	0x3db3f865	0.08787612
207	0xbd90ff0c	-0.07079896
208	0x3e8711bd	0.2638072
209	0x3e9aa86c	0.3020662
210	0xbd032f44	-0.032027498
211	0x3e716206	0.23572549
212	0xbd25e5de	-0.04050242
213	0xbc476477	-0.012169949
214	0x3de2c505	0.11072735
215	0x3e49ee16	0.19719729
216	0x3e86b0ed	0.2630686
217	0x3eaf6ff4	0.342651
218	0x3cff5e78	0.031172976
219	0x3e727bc4	0.23680025
220	0x3e8456c8	0.2584746
221	0x3e70d7e0	0.2351985
222	0x3dec69bf	0.11543607
223	0x3e6138d2	0.21994331
224	0x3e09c0be	0.13452432
225	0x3e167e4f	0.1469662
226	0x3d24514b	0.04011659
227	0x3e228e2b	0.15874545
228	0x3e42cf29	0.19024338
229	0x3ea50371	0.32229188
230	0x3d6a820d	0.057252932
231	0x3d8e9177	0.06961339
232	0x3d4bcac2	0.04975391
233	0x3e5c082c	0.21487492
234	0xbd9e6696	-0.077344105
235	0x3de1af1a	0.11019726
236	0xbd91a4de	-0.07111524
237	0x3e6962cd	0.22791596
238	0x3e664e8f	0.22490905
239	0x3cd47bca	0.025937933
240	0x3db1a5c9	0.08674199
241	0x3daddd02	0.084894195
242	0x3dcae20f	0.099063985
243	0xbd641d0c	-0.055691764
244	0x3e18c611	0.14919306
245	0xbdb44410	-0.088020444
246	0x3e8f1078	0.27942252
247	0x3e90546f	0.28189418
248	0x3d4cacea	0.04996959
249	0x3e3a1fee	0.18176243
250	0x3e92a905	0.28644577
251	0x3e74cb7b	0.23905747
252	0x3e706d06	0.23479089
253	0x3e6c86ee	0.23098347
254	0x3e94a123	0.29029188
255	0xbd337df3	-0.043821286

bias f4 [128]
0	0x3cb09154	0.021553673
1	0x3e8b01f1	0.2714992
2	0x3c473840	0.012159407
3	0xbcbe7e48	-0.023253575
4	0x3e629547	0.22127257
5	0x3d5fe90d	0.054665614
6	0x3e65b102	0.22430804
7	0x3eb65f4d	0.35619584
8	0x3eaff500	0.34366608
9	0x3eae7910	0.34076738
10	0x3d122ccc	0.035687253
11	0x3e130dea	0.14360777
12	0x3b62e99e	0.003462411
13	0x3e911b4b	0.28341135
14	0x3daaffce	0.08349572
15	0xbda153ef	-0.07877337
16	0x3d5b4959	0.053536747
17	0x3b8ef599	0.0043627736
18	0x3ea01a40	0.31270027
19	0x3e98f558	0.29874682
20	0x3d709ea4	0.05874504
21	0xbd970636	-0.073742315
22	0xbd5393e8	-0.051654726
23	0xbcaf90dd	-0.02143138
24	0xbd26f13a	-0.040757395
25	0x3d283339	0.041064475
26	0xbcec978e	-0.02888086
27	0xbc7cafb8	-0.015422754
28	0xbd211bff	-0.03933334
29	0xbba1de7b	-0.004939852
30	0xbd8c3efe	-0.06847952
31	0x3ebdcce3	0.3707038
32	0x3e05aabb	0.1305341
33	0xbd911bd7	-0.07085388
34	0x3cd9ccb8	0.026586875
35	0x3e061dbd	0.13097282
36	0x3e0c3b09	0.13694395
37	0x3ea236fa	0.3168257
38	0x3e87e44c	0.26541364
39	0x3e75b316	0.23994097
40	0xbdcfe9e8	-0.10152036
41	0xbdaef33d	-0.08542488
42	0xbd8df11e	-0.06930755
43	0x3ea40e65	0.32042232
44	0x3cb31ecf	0.021865277
45	0x3e4a7e79	0.19774808
46	0xbdbdbfe0	-0.09265113
47	0x3dff48e9	0.124650784
48	0xbc4c6ba9	-0.01247684
49	0x3e4daf6a	0.20086446
50	0x3c1e7c75	0.009673228
51	0x3e90a288	0.28249002
52	0x3da8a730	0.082350135
53	0x3d11c773	0.0355906
54	0xbd898c64	-0.067162305
55	0xbc20cdda	-0.009814704
56	0x3e25197e	0.16123006
57	0x3d231257	0.039812412
58	0xbc0a6690	-0.008447304
59	0xbda9c13f	-0.08288812
60	0xbcf94d8c	-0.030432485
61	0x3e4fa508	0.20277798
62	0xbda21186	-0.079134986
63	0x3d093fb1	0.033508006
64	0x3c0ac161	0.008468957
65	0x3d18a934	0.03727074
66	0xbbafcdfc	-0.0053651314
67	0xbd5c5cd4	-0.053799465
68	0xbd914070	-0.070923686
69	0xbc017c4e	-0.007903172
70	0x3e83da7e	0.25752634
71	0x3c7b3db3	0.015334534
72	0x3b7ec0d8	0.0038872268
73	0x3d4548ed	0.04816525
74	0x3cf76fc7	0.030204667
75	0x3e5fd7f8	0.2185973
76	0x3cde9b71	0.02717373
77	0xbc13b68a	-0.009015689
78	0xbd0b0cf2	-0.033947892
79	0x3d5035c6	0.050832532
80	0x3e785a69	0.24253239
81	0xbdeba1d8	-0.115054786
82	0x3cf10ec6	0.02942599
83	0x3e7c0609	0.24611677
84	0x3d5dab3e	0.054118387
85	0x3eab2ec3	0.33434114
86	0x3e8d97e2	0.2765494
87	0xbb853592	-0.004065224
88	0xbd64224c	-0.05569677
89	0x3cf0b857	0.029384775
90	0x3eb9e4da	0.36307412
91	0x3b092fcb	0.0020933028
92	0x3e94c79b	0.29058537
93	0xbd0a67b3	-0.0337903
94	0x3e80c6b5	0.251516
95	0xbda029fd	-0.07820509
96	0x3e903909	0.28168514
97	0x3c90e79d	0.017688567
98	0x3e94523f	0.28969
99	0xbc174730	-0.009233281
100	0x3e8a7c03	0.27047738
101	0xbd1f6448	-0.038913995
102	0xbc441df9	-0.011970037
103	0x3e8ee99c	0.27912605
104	0x3e64d9ec	0.22348756
105	0x3c4c6fd7	0.012477837
106	0x3e91816d	0.28419057
107	0xbc931d31	-0.017958255
108	0xbce6aa52	-0.028157387
109	0x3d495041	0.0491488
110	0x3d002654	0.031286553
111	0xbdc5de82	-0.096615806
112	0x3c73b9cb	0.014875839
113	0x3e647304	0.223095
114	0xbdaddff0	-0.08489978
115	0x3e7055ff	0.23470305
116	0x3e40f760	0.18844366
117	0x3e7b4339	0.24537362
118	0x3e78532e	0.2425048
119	0xbc51e097	-0.012809894
120	0x3ea41ac2	0.32051665
121	0x3eb93a71	0.361774
122	0xbd6cb9b7	-0.0577943
123	0x3d4b7642	0.049673326
124	0xbd8f7d39	-0.07006306
125	0xbdb05be8	-0.0861128
126	0x3e0b3ead	0.13598128
127	0xbd0078f8	-0.031365365

weight f4 [2, 128]
0	0x3b190ff0	0.0023355447
1	0x3eb625b5	0.35575643
2	0xbd49c836	-0.0492632
3	0xbd899fe6	-0.06719951
4	0x3ea5351c	0.32267082
5	0xbd49ae80	-0.04923868
6	0x3eb053ac	0.34438837
7	0x3eadd6f7	0.33953068
8	0x3eb40e22	0.35167032
9	0x3e9008cf	0.2813172
10	0xbd153525	-0.036427636
11	0x3e6f629d	0.23377462
12	0x3c3aaeea	0.011394242
13	0x3e7a3f89	0.24438299
14	0x3e57a85b	0.21060316
15	0xbd0362ba	-0.032076575
16	0xbd4c0969	-0.04981366
17	0xbd768e36	-0.060194217
18	0x3ea39af1	0.31954148
19	0x3e9bd0b7	0.30432674
20	0xbd3bba7a	-0.045832135
21	0x3c407792	0.011747258
22	0x3acc4fcd	0.0015587747
23	0xbd86294e	-0.06550847
24	0xbd3952a6	-0.045244835
25	0xbc919ee6	-0.017775964
26	0x3d351f9f	0.04421961
27	0x3cbfb8b6	0.023403507
28	0xbca680fc	-0.020325176
29	0x3ca34999	0.019932555
30	0x3d3c51f8	0.04597661
31	0x3ea9bed3	0.331534
32	0x3ea54e60	0.32286358
33	0xbd7ba840	-0.061439753
34	0xbd39e4bd	-0.045384157
35	0x3e79107f	0.24322699
36	0x3eab58d9	0.33466223
37	0x3ea2f381	0.31826404
38	0x3ea7113c	0.32630336
39	0x3e73eaea	0.23820081
40	0xbd4f20f4	-0.050568536
41	0x3c3ffbf1	0.011717782
42	0xbd7c0df0	-0.06153673
43	0x3ea8d544	0.3297521
44	0xbd538e85	-0.05164959
45	0x3eb67092	0.3563276
46	0xbc8ffbcf	-0.017576126
47	0x3e4ee3b6	0.20204052
48	0x3d3f50e3	0.046708
49	0x3e77f8bd	0.2421598
50	0x3d3b2cba	0.04569695
51	0x3eae0ca7	0.33994028
52	0xbd2bfd8f	-0.04198986
53	0xbd681030	-0.056656063
54	0xbd33c01c	-0.04388438
55	0xb9116d9c	-0.0001386911
56	0x3e773fc2	0.24145415
57	0xbd28ff44	-0.041259065
58	0xbd81121f	-0.063022844
59	0xbd1dd4fb	-0.038533192
60	0xbd13093d	-0.035897482
61	0x3e7d19ae	0.24716827
62	0x3cc3d4e1	0.02390522
63	0xbcee5f04	-0.029098041
64	0x3dae7933	0.08519211
65	0x3d5dd3ec	0.054157183
66	0xbd4ece52	-0.05048973
67	0x3b4792b1	0.0030452425
68	0x3caed624	0.021342345
69	0x3d803f61	0.062620886
70	0x3eae8a26	0.34089774
71	0xbcd97fe0	-0.026550233
72	0xbd875549	-0.06608064
73	0x3e25f92f	0.16208337
74	0xbd833e63	-0.06408384
75	0x3e8afcb8	0.27145934
76	0xbca6e1c8	-0.020371333
77	0xbc664474	-0.014054406
78	0xbcdbafe3	-0.026817268
79	0xbd7066bf	-0.058691736
80	0x3e93c7ce	0.28863376
81	0xbc807836	-0.015682321
82	0xbd94eaad	-0.07271323
83	0x3eb28dd5	0.34873834
84	0xbd3d3d93	-0.0462013
85	0x3ea00269	0.3125184
86	0x3eb8773d	0.36028472
87	0x3d5b47e9	0.053535376
88	0xbd8b3744	-0.067976505
89	0x3c90f66f	0.017695634
90	0x3ea41c66	0.32052916
91	0xbd519ee8	-0.051176935
92	0x3e9f6ac1	0.31136134
93	0xbd3eeca1	-0.046612386
94	0x3eba35b1	0.36369088
95	0xbd7f846d	-0.06238215
96	0x3ea543e2	0.32278353
97	0xbd37ca5d	-0.044870723
98	0x3ea89255	0.32924142
99	0x3d86920c	0.06570825
100	0x3ea3a3ef	0.3196101
101	0xbd9c1dde	-0.07622884
102	0x3d82798b	0.06370839
103	0x3ea3d75f	0.32000253
104	0x3e8f60b9	0.2800348
105	0x3c2c5b24	0.0105197765
106	0x3e9e5999	0.30927733
107	0xbd3483d4	-0.044071034
108	0xbd0a7f21	-0.033812646
109	0x3cda5945	0.026653895
110	0xbd5a89f3	-0.053354215
111	0x3bc0ac30	0.0058799013
112	0xbcb3b382	-0.021936182
113	0x3e9cd511	0.30631307
114	0xbd1a1809	-0.037620578
115	0x3eac4b8e	0.33651394
116	0x3e879441	0.26480296
117	0x3eab6a0d	0.33479348
118	0x3eaa0798	0.3320892
119	0xbd2e4edc	-0.042555675
120	0x3ea2eaa8	0.31819654
121	0x3eb4b973	0.35297737
122	0xbb0aacdc	-0.002116016
123	0xbd52a9ca	-0.051431455
124	0x3cec636c	0.028856002
125	0xbd6d85b8	-0.057988852
126	0x3e2f815f	0.17139195
127	0xbd2ad91a	-0.04171095
128	0xbd8f9157	-0.07010143
129	0x3e500022	0.2031255
130	0x3dc8c8fb	0.09803959
131	0xba22b098	-0.0006206124
132	0x3dbf476a	0.09339793
133	0x3dc0000f	0.09375011
134	0x3e3050b8	0.17218292
135	0x3e41a737	0.18911444
136	0x3e04e009	0.12976088
137	0x3e136977	0.143957
138	0xbc6952bb	-0.014240916
139	0x3e189216	0.14899477
140	0xbd32e838	-0.043678492
141	0x3e28b097	0.16473614
142	0x3e45770a	0.19283691
143	0xb9299fbf	-0.00016176606
144	0x3dcf414e	0.10119878
145	0xbb9b61a8	-0.004741866
146	0x3dae85d9	0.08521623
147	0x3e08a5df	0.13344525
148	0xbd996ad1	-0.07491077
149	0xbda72c88	-0.081627905
150	0x3ae4dfdb	0.0017461734
151	0x3cbdb649	0.02315821
152	0x3ce75db6	0.028242927
153	0xbccf0b6e	-0.025274005
154	0x3ca452e3	0.020059055
155	0x3d0d0caa	0.034435906
156	0xbcdecb85	-0.027196655
157	0x3c9f7d89	0.01946904
158	0x3d2c674c	0.0420907
159	0x3e025e52	0.12731293
160	0x3d6cde43	0.057829153
161	0xbc8cde8d	-0.017195964
162	0x3c147ae6	0.009062504
163	0x3e0e823a	0.13916865
164	0x3cf9593e	0.030438062
165	0x3e469da9	0.1939608
166	0x3de0def8	0.10980028
167	0x3e472ea5	0.19451387
168	0xbbb70cc0	-0.0055862367
169	0x3c2a91fc	0.010410782
170	0x3c958084	0.018249758
171	0x3d8976d1	0.067121156
172	0xbd104c30	-0.035228908
173	0x3dc20053	0.09472718
174	0x3b8e6d6c	0.00434654
175	0x3d32d3ec	0.043659136
176	0xbdb31f03	-0.087461494
177	0x3d5f9b66	0.05459156
178	0x3c921797	0.017833514
179	0x3decb291	0.11557496
180	0xbda3b5db	-0.079936706
181	0xbd5addbb	-0.053434115
182	0x3ce6d7af	0.028179018
183	0xbbaba5d8	-0.005238276
184	0x3e3681a4	0.17822891
185	0x3bc90beb	0.006135454
186	0x3c4df4ff	0.012570619
187	0x3d4e78e5	0.050408263
188	0xbc02bccd	-0.007979584
189	0x3d2de2d4	0.04245265
190	0x3ce2c6db	0.027682712
191	0xbc0a68c2	-0.008447828
192	0x3d97fc6e	0.07421194
193	0x3c907d6f	0.017637936
194	0xbd1d49c8	-0.03840044
195	0x3d399de3	0.045316588
196	0xbd6e9f8c	-0.058257625
197	0xbd33ad99	-0.043866728
198	0x3de78b80	0.113059044
199	0xbd1392d7	-0.03602871
200	0x3d9fd0f0	0.078035235
201	0x3e1c0825	0.15237482
202	0xbd830cfa	-0.063989595
203	0x3e462523	0.19350104
204	0xbd309883	-0.043114197
205	0xbd1f35fe	-0.03886985
206	0x3d64dd1e	0.055874936
207	0xbd90091b	-0.07032987
208	0x3dd4f86d	0.10398946
209	0x3baf5120	0.005350247
210	0xbd871910	-0.06596577
211	0x3e43cbec	0.19120759
212	0xbbd36493	-0.0064511984
213	0x3de0ba32	0.10973014
214	0x3e20f3d8	0.15718019
215	0xbcb9a529	-0.022661762
216	0x3a72e65e	0.0009265895
217	0x3b00fefc	0.0019683233
218	0x3e14ad57	0.14519249
219	0x3940a67e	0.0001837257
220	0x3e06ce58	0.13164651
221	0x3d817966	0.06321983
222	0x3e39858d	0.18117352
223	0xbd43a082	-0.047760494
224	0x3e4fa260	0.20276785
225	0xbc4cbff8	-0.012496941
226	0x3db16bec	0.086631626
227	0xbd2ac0f5	-0.041687924
228	0x3e0baeb9	0.1364087
229	0x3ce829e6	0.028340291
230	0xbce28565	-0.027651498
231	0x3e34db44	0.17661768
232	0x3e23d47e	0.15999028
233	0x3d5454a8	0.051838547
234	0x3e0cfcf5	0.1376837
235	0x3a916e9c	0.0011095586
236	0x3d828cbf	0.063745014
237	0xbbc47e50	-0.005996503
238	0xbd8ab7b2	-0.06773318
239	0x3d999914	0.074999005
240	0x3d8fdc6c	0.07024464
241	0x3e45cd7a	0.19316664
242	0xbd38349e	-0.044972055
243	0x3e3bd182	0.1834164
244	0x3e026875	0.1273516
245	0x3e1f0b79	0.1553172
246	0x3dd094c8	0.10184628
247	0x3dc2d7fa	0.095138505
248	0x3dca231f	0.0986998
249	0x3e05a4e6	0.13051185
250	0xbd930ab2	-0.07179774
251	0xbcfd191a	-0.030895758
252	0x3c9a7757	0.018855734
253	0x3c4a0854	0.012331087
254	0x3d8b1e90	0.06792939
255	0xbba16265	-0.0049250596

bias f4 [2]
0	0x3e8f3d7c	0.27976596
1	0x3d9dda06	0.077076
